best_model.pt (torch, 320507 bytes, 4 tensors)

1.weight f4 [100, 784]
000000 13 44 a2 bb 67 4b 90 bc 23 a7 aa 3c 1c 20 98 3c
       -0.0049519627 -0.01761408 0.02083165 0.018569998
000010 d8 9c 08 3d 61 a9 43 3c ce 50 26 bc 6e 92 61 3a
       0.033352703 0.011942239 -0.010151101 0.00086048886
000020 79 0e 1f 39 7d 7a fd bc 56 e7 81 bb d7 d8 5a bc
       0.00015168813 -0.030942196 -0.003964345 -0.013357363
000030 25 a3 b2 bc 30 83 93 bc 4a 26 dc 3b 81 fe da bb
       -0.021806309 -0.018006891 0.0067184316 -0.0066831713
000040 81 05 07 bd ef b9 a6 3c c9 59 85 bc fc 6f 03 bd
       -0.032964233 0.020352332 -0.016278164 -0.03208922
000050 52 f3 80 bb e5 77 af 3c 5e 4e c7 bc bf ec 08 3d
       -0.003935256 0.021419475 -0.02432936 0.033428904
000060 38 ec ef 3b d0 24 87 3c 81 1d cd 3c 9c f2 ef 3c
       0.0073218606 0.016497046 0.025038483 0.02929049
000070 41 aa c8 3c e5 87 05 bd 7a 08 9a bc 07 4f 34 bc
       0.024495246 -0.032600302 -0.01880287 -0.01100517
000080 25 5c aa 3a 25 6b c0 3b 62 88 5f 3c dc ce 0b 3c
       0.0012997432 0.0058721476 0.013643356 0.008533206
000090 f8 ad d0 3c 40 80 14 bd 76 f0 84 3c 18 53 5f 3c
       0.02547358 -0.03625512 0.016227942 0.013630651
0000a0 48 98 1b bc e3 db 2a bd e0 48 3e 3c a8 76 e5 3c
       -0.009496756 -0.041713607 0.011614054 0.028010681
0000b0 45 e8 9b bc 5d 3c 01 bd 62 c7 1c bc 7b 56 0f bd
       -0.019031653 -0.031551708 -0.009569021 -0.034994584
0000c0 0c 64 30 bc ce cc 86 bc 87 50 d3 bc 65 0d 12 bd
       -0.0107660405 -0.01645508 -0.025795234 -0.035657305
0000d0 17 ff 00 bc 2e 22 01 3d 2b 0c 0c bd 08 80 e2 bc
       -0.007873318 0.031526737 -0.03419129 -0.02764894
0000e0 13 07 cf bb 81 16 ab 3c 9d cf 08 bd c6 87 53 3a
       -0.006317982 0.020884754 -0.03340112 0.0008069243
0000f0 47 8e 8a 3c 07 57 bb 3a 8e a3 77 bc c7 b6 a1 bb
       0.016913546 0.0014292904 -0.015114678 -0.004935119
000100 b6 41 a3 bc 06 d0 4d bc 72 c5 b6 3b 5f 52 20 bd
       -0.019928794 -0.012561804 0.0055777365 -0.039141055
000110 27 36 96 3c 78 41 96 3c 1a ed 1a bd 66 c8 32 bc
       0.018336369 0.018341765 -0.037823774 -0.0109120365
000120 07 22 d7 3c a7 99 a5 bc f7 ee ee 3c 77 02 8a bb
       0.026261343 -0.020214869 0.029166682 -0.0042117196
000130 d9 56 ac bb aa 19 c0 3b b1 c6 34 3c 53 bc fe bb
       -0.0052593765 0.0058624344 0.0110337 -0.007773915
000140 13 33 c2 bb a4 4d 0e bd 71 4b dd bc 17 83 05 bd
       -0.0059264987 -0.034742013 -0.027013512 -0.03259572
000150 5a 13 12 bd 25 b9 2f b9 cf 68 11 3d ca 0e 04 bc
       -0.035662986 -0.00016758272 0.035500344 -0.008060167
000160 65 e8 2c bc a7 94 54 3c a6 1e b3 3b 6f f7 4e bc
       -0.010553454 0.012974895 0.0054663 -0.012632235
000170 90 e9 a2 3b c3 e5 cd 3c 88 4f 1d 3a 88 1f 1c bd
       0.0049716905 0.025133973 0.0006000926 -0.038116008
000180 9c 56 a3 bc d0 0b af bc a8 2c e1 bc c3 15 b1 bc
       -0.01993876 -0.021367937 -0.027487114 -0.021616822
000190 4b ec 49 3c 17 05 e1 3c b9 91 ce bc 03 d3 db 39
       0.012324403 0.027468247 -0.02521597 0.0004192815
0001a0 7a 2e dd 3c 5c 9e eb bc bc ff 7e 3c 81 78 f7 bb
       0.0269997 -0.028762035 0.0155639015 -0.007552207
0001b0 93 6e fd 3b 45 67 09 bd 83 22 fb 3c 6e 40 b0 bc
       0.0077341287 -0.03354575 0.030656105 -0.021515097
0001c0 dc 94 68 3a ed bf 0e bd ea 30 0b bc f3 67 37 3c
       0.00088722794 -0.034851003 -0.008495549 0.011194217
0001d0 c8 ec e9 bc 83 e8 84 3c ca 28 75 bb b2 b7 85 bb
       -0.028555289 0.016224151 -0.0037408345 -0.004080736
0001e0 84 92 a1 bc 0e 7a d5 3c 41 c2 5c bc 36 0f b1 3a
       -0.019723184 0.026059177 -0.013474048 0.0013508562
0001f0 9b c4 15 bd e7 54 31 bb a8 1a 15 3b 2a f5 ae 3b
       -0.03656445 -0.0027058662 0.0022751484 0.0053392844
000200 23 55 86 3c 09 e1 e1 bc f7 8a ea bc 4f c4 42 bc
       0.016398018 -0.027573125 -0.028630717 -0.011887624
000210 11 ba c0 bc 2b a9 f6 bc 13 2b ca 3c 8a 26 da 3c
       -0.023526223 -0.030109962 0.024678743 0.026629705
000220 81 7d ba 3c 81 54 78 3c d5 46 8e 3c 41 b9 cc bc
       0.022764923 0.015156866 0.01736776 -0.02499068
000230 a7 9f a4 bc f5 b5 c0 bc 55 30 f5 3c 2e 43 10 bc
       -0.02009566 -0.023524264 0.029930273 -0.008805079
000240 97 01 91 bc 11 30 22 3c 48 9f d6 3b 4e 9b 95 3c
       -0.017700953 0.009899155 0.0065497495 0.018262532
000250 7f 50 3d 3c 18 47 1c bd f3 09 16 bd a7 46 a6 bc
       0.011554836 -0.038153738 -0.036630582 -0.020297362
000260 12 83 9e 3a 96 2c 4b bc 0c 9b 67 3b 95 5e dc 3c
       0.0012093505 -0.012400767 0.0035340218 0.026900569
000270 48 5c ec bb 5c b0 29 bd 3f 8f 60 3c 2a e1 85 3a
       -0.007213149 -0.041427955 0.0137060275 0.0010214199
000280 09 93 8f 3c b7 73 95 bc c0 5d c2 3b b6 f9 c0 3b
       0.017526167 -0.018243654 0.005931586 0.005889143
000290 4a a2 e2 3a 93 9e 8b ba 27 2c d1 bc 6e ac ac 3c
       0.0017290798 -0.0010652117 -0.025533749 0.021078315
0002a0 a5 ff 3f 3c b5 ae a3 bc 5c 54 87 bb 5c 2f 97 3b
       0.011718665 -0.019980768 -0.0041299295 0.0046138
0002b0 73 8d 7e 3c 1c af d1 bc 32 00 07 bd 86 6c 9e 3c
       0.015536654 -0.025596194 -0.03295917 0.019338857
0002c0 7e 49 2c 3c ad a3 7c 3c db df 8a bc 38 03 7a 3c
       0.010515569 0.015419883 -0.016952446 0.0152595565
0002d0 cd 37 b0 3c 7b eb d1 3c c5 c9 3a b8 2e 24 1f bc
       0.021510983 0.025624981 -4.453377e-05 -0.009713216
0002e0 a0 7c da 3c d3 eb a4 3b f8 4d cc 3b bf 08 92 3c
       0.026670754 0.0050329953 0.0062348805 0.017826436
0002f0 10 ec 10 bd cd 3e e7 3c bd f4 22 bd 59 44 e9 bc
       -0.035381377 0.028228188 -0.039784182 -0.028474974
000300 ca 39 df 3b 38 4f ea 3b 01 f5 ec 3c 2e 1b 37 3c
       0.006812309 0.007150557 0.02892542 0.011175914
000310 4a d2 1e 39 2a 95 0d bd 1f 77 08 3d f7 ba 40 bc
       0.00015146393 -0.034566082 0.033316728 -0.011763326
000320 d3 49 0c 3c 11 f2 8f bb ed 2a 80 3c be 72 d5 3c
       0.008562523 -0.0043928702 0.015645469 0.02605569
000330 6a 5a 1e bc 38 fa e5 3c 74 e7 7a bb 86 12 1e bd
       -0.009665111 0.028073415 -0.003828493 -0.038591884
000340 d9 f3 52 bc f2 6a f2 3b 5f d8 8f bc dd 15 2b bc
       -0.012875521 0.007398003 -0.017559228 -0.010442224
000350 8c 90 90 3c ef a1 a6 bc 80 11 81 bc 05 9c d2 3a
       0.01764705 -0.020340888 -0.015755415 0.0016068226
000360 c3 8d 59 3c 77 d9 0d bd 48 54 3f bc 86 0e fd 3b
       0.0132784275 -0.03463122 -0.011677809 0.0077226786
000370 aa 63 d9 3c 81 90 bf bb cc 04 e9 bc f7 d8 43 bc
       0.026536781 -0.0058460836 -0.02844467 -0.011953584
000380 73 40 c3 bc 01 bf ab 3b 4c 4d de bc e0 9c 22 bc
       -0.023834443 0.0052412753 -0.027136467 -0.009925097
000390 6d 05 17 bd cf 3c 1e bc 77 22 60 bc 59 ad 6c bc
       -0.03687041 -0.009658053 -0.013680092 -0.014445626
0003a0 4b d7 25 3c 15 1a 90 3b 41 a7 05 bd 87 c7 48 3c
       0.010122131 0.0043976405 -0.03263021 0.012254602
0003b0 43 e6 b2 3c ce 22 56 3c 38 c6 00 bd 12 ae 8c 3a
       0.021838313 0.0130698215 -0.031439036 0.0010733029
0003c0 cd 1c c0 3c e5 9a fa bc ea ce 89 bc 6b be 92 3c
       0.023451233 -0.030591438 -0.016822297 0.017913064
0003d0 bb 4d 5e 3c 0e 8d d5 39 9a 59 0d bd 42 91 cb bb
       0.013568337 0.0004073162 -0.03450928 -0.0062123844
0003e0 dc c7 8f bc 5c d9 fc bb ec 68 d0 3c 4c 10 8c bc
       -0.017551355 -0.007716341 0.025440656 -0.017097615
0003f0 c3 51 af 3c 0a 28 cb bc b5 3f ea 3c 8a b7 5f 3c
       0.021401292 -0.024799366 0.028594831 0.013654599

1.bias f4 [100]
000000 e2 79 89 bc 14 99 8e 3e 06 ba 5b 3a de 9c 1c 3f
       -0.016781751 0.27851164 0.00083819067 0.6117686
000010 dc b5 4e bf da 69 ab 3e 00 ce 1a 3f bc d2 1a 3f
       -0.80746245 0.33479196 0.6047058 0.60477805
000020 d8 c2 f2 3e 0e d2 0c bd ea 94 72 3e a9 c2 8e 3e
       0.4741428 -0.03438001 0.23689619 0.2788289
000030 e5 58 d0 3b 72 6b 38 3f 95 c6 a0 bc 1a db c6 3e
       0.0063582533 0.7203895 -0.019625941 0.38839036
000040 c4 29 ef 3d 0a 1a 21 3f 41 29 ee 3d 5a dc cc bc
       0.11677888 0.6293036 0.11628962 -0.025007416
000050 dc cf e7 3e 33 e3 82 bc e7 d1 58 3e 56 d3 c5 3c
       0.45275772 -0.015977478 0.21173821 0.024148624
000060 ef 7e 5c 39 8f 29 b4 3e cd 19 66 be 9f 8e 4d be
       0.00021028121 0.35187957 -0.2247078 -0.20073937
000070 e8 a8 de 3e 40 04 ee 3c e8 c6 4c bd ed f1 a5 3e
       0.4348824 0.029054761 -0.04999438 0.32411137
000080 55 28 b0 be a1 93 8b bd 27 48 ad be e1 91 24 bd
       -0.3440577 -0.06815267 -0.3384411 -0.040178183
000090 9a 18 d4 3b d5 86 ce 3e 46 55 a3 be 1f 40 01 bd
       0.0064726593 0.40337244 -0.31900996 -0.03155529
0000a0 06 be e7 be 56 4a 09 be 0b f3 be 3c b7 13 00 bd
       -0.45262164 -0.13407263 0.023309251 -0.0312688
0000b0 b3 81 ed bd 2d a1 a4 3e 27 a9 c2 3e 03 fc 8d bd
       -0.11597004 0.32154217 0.38019678 -0.06932833
0000c0 3a 60 84 3f fe e0 cc 3e bc 8f 8c bc 9a 97 15 3f
       1.0341866 0.40015405 -0.017158382 0.5843445
0000d0 28 f7 ff bc 64 f2 42 be c1 4d 40 3f 09 6d 86 be
       -0.031245783 -0.19037777 0.75118643 -0.26255062
0000e0 58 85 80 3d eb 90 b2 3e 09 50 00 bd b6 b8 29 3f
       0.06275433 0.3487619 -0.031326327 0.6629747
0000f0 8f 92 41 3f 70 07 24 3f 58 59 c3 be 0f 55 e7 be
       0.75614256 0.6407385 -0.381541 -0.45182082
000100 58 48 55 3f 52 93 b3 3d 93 31 0e 3f be d6 17 3d
       0.8331351 0.087683335 0.55544394 0.03707003
000110 c8 7f 81 3e ef 24 91 3f 6e ee 3a 3e ef 8e 73 bc
       0.25292802 1.1339396 0.18255016 -0.014865621
000120 52 f6 0f bf a8 37 b0 bc cc d2 ee 3d a8 71 1a be
       -0.5623523 -0.021510914 0.116613 -0.15082419
000130 9d f4 42 bf 23 a6 05 3f 33 91 85 3c af 81 a1 3e
       -0.761545 0.5220663 0.016304588 0.31544253
000140 be 50 6e 3e 01 a0 63 3c 0c 6b aa 3b 4f c4 bb be
       0.23272988 0.013893128 0.0052007493 -0.3667321
000150 dc 24 92 be 57 6f 17 be b1 95 0a 3f 5b 97 a5 3c
       -0.28543746 -0.14788567 0.5413466 0.020213773
000160 56 5d 32 3f 69 a7 40 3f 5a ba ca 3e d7 5d 3b 3a
       0.6967367 0.7525545 0.395953 0.0007147467
000170 c8 5a 41 3e 57 14 dc 3e a8 02 4f bd 71 6e 35 ba
       0.18882287 0.42984268 -0.050539643 -0.0006921059
000180 2b cd 4c 3f 32 c9 f1 bc 72 94 9e 3f 7f 73 b4 3e
       0.8000056 -0.029514883 1.2389052 0.35244367

4.weight f4 [10, 100]
000000 61 00 91 bc 9f 79 97 3c 97 ef 88 bd 11 dd 04 3e
       -0.017700376 0.01849061 -0.06686323 0.12974955
000010 e4 77 ce 3d cf 86 d2 3d 54 cb c7 be 32 a0 17 3e
       0.10081461 0.10279619 -0.39022315 0.14807203
000020 38 22 86 be 65 27 b8 bd d3 ed ca be 5a 3b 01 3d
       -0.26197982 -0.08991889 -0.3963457 0.031550743
000030 b9 33 ef 3b 45 44 3b be a2 94 90 3d 73 89 c1 3d
       0.007299867 -0.18287762 0.070595995 0.094500445
000040 64 c2 08 bd e2 f4 2f be 15 f9 ae be 5e c5 60 3d
       -0.03338851 -0.17183259 -0.3417441 0.054875724
000050 ef cc 76 be 3d 6f 00 3c c8 4a a1 3d 55 15 15 be
       -0.24101613 0.007839021 0.078755915 -0.14558919
000060 f9 99 58 bd d6 ed 1f be 92 15 27 be b9 eb f0 bd
       -0.052881215 -0.15618071 -0.16316822 -0.117637105
000070 4e ed 37 be ba e4 ee 3d 5e 7a 95 bd 1f a6 27 3e
       -0.17961618 0.1166472 -0.0729873 0.16371964
000080 a3 ba 0e 3d ea ef af 3d 83 01 ef 3d 70 8a 8d 3d
       0.03484596 0.08590682 0.1167021 0.069111705
000090 29 e5 2a bc 93 27 7f be ae 64 97 be bf c7 e3 bd
       -0.010430613 -0.2491744 -0.29569 -0.11122083
0000a0 98 53 2a bf e3 7e f3 bd 8f 51 b3 bc f0 fe 62 bd
       -0.66533804 -0.11889436 -0.021889476 -0.05541891
0000b0 9a 1b f4 3d f8 8d 6f 3d 3f 10 34 bd 6e 0f 7a be
       0.11919327 0.058485 -0.043960806 -0.24419948
0000c0 e6 14 8a bf 06 46 b6 3e 28 26 61 bd 17 26 19 3e
       -1.0787628 0.356003 -0.05496803 0.14955936
0000d0 ae af 6f bd c8 22 58 3e 0b ed 24 bf e0 0f b2 be
       -0.05851715 0.21107018 -0.644242 -0.34777737
0000e0 01 81 5e bd ae 59 0d be 2f a7 a9 bd 53 0f 2e 3e
       -0.054322246 -0.13803741 -0.08283841 0.16998033
0000f0 db d2 46 be 44 34 09 3e 53 b1 86 be c0 d8 3c 3d
       -0.19416372 0.13398844 -0.26307163 0.046105146
000100 b7 5e 2a 3e 2d 1c ed 3d 1c 15 42 3e bc c5 c7 bd
       0.16637693 0.1157764 0.18953365 -0.09754512
000110 59 46 c9 3c 1f 4d 00 be 82 6b 97 3d 5e 8c 13 3e
       0.024569677 -0.1252942 0.07393552 0.14409015
000120 af d6 b9 3c fa 1d 18 bf a1 16 97 be f9 b4 6a bf
       0.022685377 -0.5942074 -0.29509452 -0.9168239
000130 6c f7 24 be 10 1f 9b 3d 75 ef 6f 3d 47 0d ca be
       -0.16110009 0.07574284 0.058577973 -0.39463255
000140 b6 a4 77 3d a7 9a d2 bd e2 1c 9c 3d 3c 55 bc be
       0.060459815 -0.10283404 0.076226965 -0.3678378
000150 ef 2e 39 be 32 23 eb be c6 82 da 3d 4f b3 ba bd
       -0.1808431 -0.4592529 0.10669474 -0.09116232
000160 26 d1 ec 3d 2d 95 df 3d a9 8b 9e 3d 58 a1 a1 be
       0.115633294 0.10917125 0.07741482 -0.31568408
000170 6f eb 82 3d ff e0 81 be bb 43 09 3e 97 68 0a bb
       0.06392562 -0.2536697 0.13404743 -0.002111947
000180 41 fb f1 3d b5 17 13 be 16 aa 00 bf b4 19 f7 bd
       0.11815501 -0.14364512 -0.5025953 -0.12065449
000190 cb ea cb bd 4e 5d e2 be ac 78 29 3d 7a ad 40 3e
       -0.099568926 -0.4421181 0.041374847 0.18816176
0001a0 d9 74 aa 3d 29 a7 7a bf 7f 3c 7b 3b 6f 24 1e bf
       0.08323068 -0.97911316 0.003833562 -0.61774343
0001b0 36 5b be bd e4 e6 19 bd 1a 5a 75 3d fc 91 47 be
       -0.09294741 -0.03757371 0.05990038 -0.19489282
0001c0 0a 0e 73 bb 84 66 0e 3e 54 4c 40 bc 22 ca 19 3e
       -0.0037087225 0.13906294 -0.011736948 0.15018514
0001d0 e0 c7 c7 3d eb 55 17 bf b3 da 29 3e 29 d4 2c 3d
       0.0975492 -0.59115475 0.16587333 0.04219452
0001e0 14 c3 1b 3e d1 37 89 be e2 26 84 3e f7 17 44 bf
       0.15211135 -0.26800397 0.25810915 -0.7659907
0001f0 26 eb 40 bd 0c 7a 4a bf e9 16 8c be 7c 25 8f 3d
       -0.047099255 -0.7909248 -0.2736123 0.069895715
000200 ab a3 3a bf f6 00 5f bd b8 9e 03 be a3 f6 fb 3d
       -0.7290599 -0.054444276 -0.12853515 0.123029016
000210 a3 40 f0 3d 0b fd 10 bf cc fb 77 be cb 3a 5a bc
       0.117310785 -0.5663611 -0.24217147 -0.013319681
000220 36 2d a4 3d db 29 04 3e a4 73 1e 3e 97 8d fc be
       0.08016436 0.12906592 0.15473801 -0.49326774
000230 18 bf 09 3f 4e 0a 9a 3e 3a a6 be bd 7c 35 96 bc
       0.5380721 0.30085987 -0.09309049 -0.01833605
000240 dd 15 60 be 24 8d c9 be db 0d 96 be 9f 0b 86 3d
       -0.2188334 -0.39365494 -0.29307446 0.06545185
000250 ce a2 91 be d6 d4 a4 3a 51 ac 0c 3d 11 24 8b 3d
       -0.28444523 0.0012575637 0.03434402 0.067939885
000260 b4 5d 60 bc 24 44 25 3d de 66 38 bb a1 11 9b 3e
       -0.013694216 0.040348187 -0.0028137485 0.30286887
000270 c8 b6 e1 3d 2e 3a dc 3d 23 0d 99 bd 66 06 92 be
       0.11021191 0.107532844 -0.07473209 -0.28520507
000280 09 c4 24 bf e6 78 0e 3e c9 6e 83 bd bd 05 39 3d
       -0.64361626 0.13913307 -0.06417615 0.045171488
000290 ba df 2c bf fd 42 df bc 9b af 8e be 75 87 f4 bc
       -0.6752888 -0.027253622 -0.2786835 -0.029849747
0002a0 37 14 d1 be 69 d1 11 bf 35 23 fc 3d 78 6e c3 be
       -0.40835735 -0.5696016 0.12311403 -0.38170218
0002b0 4c 6d 95 3e ee 78 c4 be 88 be 2b bf a5 61 29 3f
       0.2918495 -0.38373512 -0.670876 0.6616462
0002c0 75 26 bd 3e fd e7 c7 be b0 98 3b 3d 93 b1 0f bf
       0.36943403 -0.3904418 0.04579991 -0.5613033
0002d0 9a 7a df be 86 eb bb 3d a8 d3 93 ba d1 59 0c bf
       -0.43648225 0.09175782 -0.0011278288 -0.5482455
0002e0 0c 09 25 be c6 d4 57 be af 57 e4 be c8 a5 6c 3d
       -0.16116732 -0.2107726 -0.44598147 0.05777529
0002f0 c6 18 53 bf 6f f6 49 bf b2 db 9e 3e c1 ab d6 be
       -0.82459676 -0.7889165 0.3102699 -0.41927913
000300 c3 ac 5a 3d 7b 94 8a bf ae f0 30 3e a1 8a 1a 3d
       0.053387415 -1.0826563 0.17279312 0.037729863
000310 d5 48 82 bf 84 cc a5 3e 45 2f a0 bf 1c 43 16 bf
       -1.0178477 0.32382596 -1.2514426 -0.5869615
000320 13 f4 e9 bb e3 1e 38 bf 81 11 83 3d fc 1b bd be
       -0.0071396916 -0.7192213 0.06399823 -0.36935413
000330 cc b5 38 bd c2 d8 9a 3d ae 89 77 be 6a 37 12 be
       -0.04509525 0.075608745 -0.24173614 -0.14278951
000340 1e 83 29 bf 48 fe 56 3d 0f 14 b8 bd ed 37 9a bd
       -0.66215694 0.052488595 -0.08988201 -0.07530198
000350 d7 40 2c 3d 0f ca 7d 3e f6 77 d5 bd 21 e0 9f 3d
       0.042054024 0.2478411 -0.10423271 0.07806421
000360 77 65 69 3d 15 97 08 3e b7 26 72 be 7b ec 56 bd
       0.05698153 0.13338883 -0.23647581 -0.05247162
000370 2c 8a 80 be fe fc 04 3e 97 80 fa bd c9 5f 80 be
       -0.25105417 0.12987134 -0.12231558 -0.25073078
000380 e0 ff 8b 3d e3 3c f2 3d c0 bd 10 be a0 a0 98 3d
       0.06835914 0.118280195 -0.14134884 0.07452512
000390 89 66 4a be 43 a9 f5 be 49 31 92 be f5 08 d0 be
       -0.19765677 -0.479807 -0.28553227 -0.40631834
0003a0 06 23 88 3d a7 16 86 3d 92 4a b8 3d 22 5c 82 3d
       0.06647305 0.06547289 0.08998598 0.06365229
0003b0 63 f3 4d bd d6 ea b6 be 9f f7 7e be ef e7 07 3e
       -0.05028094 -0.3572604 -0.24899147 0.1327207
0003c0 05 ed 31 bf f0 ba 2c 3e 4e f6 a9 bd c9 0a 14 3d
       -0.6950229 0.16868186 -0.08298932 0.036143098
0003d0 e3 50 df 3d 1b a3 c5 be 55 b5 34 b9 7e d8 7d 3d
       0.109041 -0.38601002 -0.00017233689 0.06197404
0003e0 42 2c 96 bf bf be 0f bf ba 82 37 3c a8 45 03 bf
       -1.1732256 -0.5615043 0.011200601 -0.5127816
0003f0 2a cf 5d 3d 7b 67 a0 bd c1 21 96 bf 99 f1 dd 3d
       0.054152645 -0.07832237 -1.1729051 0.10837097

4.bias f4 [10]
000000 89 41 68 bd 4a 51 f4 be cd 8a 00 3e 4c bc 85 3e
       -0.056703124 -0.4771827 0.12552948 0.26120222
000010 a2 22 b0 be e7 e5 9a 3e 79 0d 9f 3d 68 ee ad 3e
       -0.34401423 0.30253527 0.077662416 0.33970952
000020 ee fb 25 be b9 b0 17 bf
       -0.16209385 -0.5925403
