best_model.pt (torch, 320507 bytes, 4 tensors)

1.weight f4 [100, 784]
0.096328914 -0.059785716 0.05508331 -0.016662441 -0.24621016 -0.2827116 -0.53483933 -0.4312135
-0.08709331 0.05720102 0.1875934 0.16664709 0.09553506 0.060177516 -0.016751757 -0.0299498
0.060928993 0.1574145 0.09972702 0.060676005 -0.27365977 -0.5405222 -0.2668352 -0.06358275
-0.10313089 -0.06336189 0.01698909 -0.098766826 0.35573727 0.16121858 0.30708885 -0.0482854
-0.17870542 -0.41634798 -0.16771455 -0.039505005 -0.24179317 -0.09940082 0.13264844 0.14480379
0.16150212 0.12541033 0.10697327 0.14082938 0.25026783 0.28107932 0.13385698 -0.11858166
-0.15632105 -0.103260145 -0.35623437 -0.37016207 -0.08769239 -0.085106134 -0.0347703 -0.034761243
-0.1902134 -0.06790404 0.19785285 0.027849643 -0.12315574 0.02604067 0.12631287 -0.023658598
-0.2141141 0.023487294 0.06294805 -0.026666867 0.12558028 0.072195575 0.26499602 0.19080539
0.13668036 0.044597495 0.023268659 -0.044687837 0.08430262 0.06590682 0.16093259 -0.1705467
-0.059173178 -0.10835339 0.11557715 0.28774044 -0.20608687 -0.14682537 -0.13401262 -0.039107442
0.11126908 0.16219066 0.014129378 -0.115003884 0.033828285 0.040047 -0.031580217 -0.16377406
0.04516135 -0.0083575295 0.116648 -0.022247428 -0.12705822 0.009030643 0.027407277 -0.06574061
-0.012385385 0.06153802 0.22077973 0.100355774 0.048507225 -0.17364626 -0.12529057 0.112519994
-0.18660307 -0.15555683 -0.18970078 -0.060563013 0.20361786 0.058419492 -0.032883085 0.037483387
-0.018764926 0.016158456 -0.14830497 -0.0841398 0.026197901 0.054947827 0.12364526 -0.014427749
-0.08755216 -0.022871494 -0.024908947 -0.055782612 -0.013665446 0.064833745 0.005798759 0.12902875
0.063897185 -0.121019386 -0.11066895 -0.011680937 -0.21139246 -0.16874485 -0.1020249 0.12413009
0.07542337 0.008394066 -0.0011166674 0.07109226 0.022430373 -0.09946903 -0.0105292555 -0.0100531075
0.016846472 0.09330143 0.119338855 -0.08850239 -0.033395752 0.006562378 -0.047069132 -0.07937001
0.09577788 0.13628006 0.072884016 0.07999412 0.1172279 0.005899123 -0.14054611 -0.032699224
-0.3306888 -0.3235139 -0.21274026 0.25696707 0.11984016 0.13353322 -0.052300528 0.15540616
-0.040050443 -0.15873317 -0.11493854 -0.040259555 -0.035652637 -0.024545683 0.095873 -0.042597063
-0.05959325 -0.072778724 -0.2370671 -0.1728753 -0.04043769 0.10178689 0.13338931 0.19562013
0.090891786 0.036280528 -0.10116504 0.086825125 -0.3264361 -0.31221983 0.0070262584 0.13110797
-0.077480525 0.07724462 -0.03038259 0.17087395 0.03212997 -0.16007014 -0.12575033 -0.08496021
-0.08358636 -0.11145179 0.10454989 -0.038211644 0.01199296 -0.09093508 -0.24945688 -0.30925095
-0.100228794 0.14107463 0.058649126 0.14717731 0.04326904 0.1644358 0.12492434 0.27331963
-0.26070198 -0.28703946 -0.038030762 0.024105275 -0.19689322 0.015061964 0.06731171 0.16948496
-0.004174961 -0.14925513 -0.12805203 -0.06912683 -0.05060301 0.04021813 0.16500066 0.14331341
-0.004223479 -0.09152352 -0.24639326 -0.17376871 0.072660305 0.094967335 -0.016289447 0.0320967
-0.098640844 -0.002000183 -0.018357217 -0.061182138 -0.20810981 -0.11239119 -0.06807347 -0.061062526
00000000: 1848 c53d dee1 74bd 099f 613d ac7f 88bc
00000010: 841e 7cbe 93bf 90be 3beb 08bf 04c8 dcbe
00000020: fa5d b2bd 9e4b 6a3d 7c18 403e 89a5 2a3e
00000030: e3a7 c33d b37c 763d fb3a 89bc 4859 f5bc
00000040: ae90 793d 4431 213e ae3d cc3d 6787 783d
00000050: 221d 8cbe aa5f 0abf a09e 88be ac37 82bd
00000060: 4a36 d3bd e1c3 81bd b42c 8b3c 4346 cabd
00000070: 3223 b63e 7c16 253e c03a 9d3e e9c6 45bd
00000080: 8efe 36be 902b d5be 5dbd 2bbe 00d0 21bd
00000090: a198 77be a892 cbbd fed4 073e 7247 143e
000000a0: d060 253e 916b 003e cd14 db3d 9435 103e
000000b0: 1b23 803e a1e9 8f3e ce11 093e f1da f2bd
000000c0: a012 20be 0e7a d3bd 5a64 b6be e285 bdbe
000000d0: 1198 b3bd 204c aebd 4d6b 0ebd ce61 0ebd
000000e0: 4dc7 42be 4611 8bbd f099 4a3e ef24 e43c
000000f0: 1439 fcbd 3e53 d53c 2958 013e adcf c1bc
00000100: ba40 5bbe 6d68 c03c e8ea 803d 7974 dabc
00000110: 1e98 003e 46db 933d 8fad 873e 7d62 433e
00000120: f0f5 0b3e ddab 363d ea9d be3c 980a 37bd
00000130: daa6 ac3d 28fa 863d 83cb 243e cba3 2ebe
00000140: 935f 72bd 62e8 ddbd b6b3 ec3d b752 933e
00000150: 7008 53be 6459 16be 9b3a 09be 202f 20bd
00000160: 0be1 e33d 4f15 263e e87e 673c 2887 ebbd
00000170: 878f 0a3d 5308 243d 425a 01bd 63b4 27be
00000180: 1cfb 383d 05ee 08bc 26e5 ee3d 3d40 b6bc
00000190: 8d1b 02be 43f5 133c 3a85 e03c 03a3 86bd
000001a0: 12ec 4abc 4a0f 7c3d 1514 623e 5487 cd3d
000001b0: 83af 463d 53d0 31be 2c4c 00be e270 e63d
000001c0: e014 3fbe 4a4a 1fbe ec40 42be ec10 78bd
000001d0: 3381 503e 4749 6f3d 6ab0 06bd 2e88 193d
000001e0: e7b8 99bc bd5e 843c 42dd 17be 7d51 acbd
000001f0: fb9c d63c f910 613d ba39 fd3d 5e62 6cbc
00000200: 8c4e b3bd 005d bbbc d90d ccbc 4f7c 64bd
00000210: 09e5 5fbc 8ec7 843d 8403 be3b 1d20 043e
00000220: 87dc 823d 03d9 f7bd 67a6 e2bd 6761 3fbc
00000230: 4477 58be 73cb 2cbe 6ef2 d0bd eb37 fe3d
00000240: 9177 9a3d 4487 093c 245d 92ba d298 913d
00000250: e7bf b73c 6bb6 cbbd e682 2cbc cab5 24bc
00000260: 9d01 8a3c d214 bf3d ee67 f43d be40 b5bd
00000270: fcc9 08bd 3709 d73b 90cb 40bd be8c a2bd
00000280: 3127 c43d 008d 0b3e 3744 953d f5d3 a33d
00000290: 2e15 f03d 6e4d c13b 52eb 0fbe 9fef 05bd
000002a0: 0b50 a9be 9da3 a5be 95d8 59be 3091 833e
000002b0: c26e f53d efbc 083e 1439 56bd cb22 1f3e
000002c0: ef0b 24bd f38a 22be e664 ebbd 34e7 24bd
000002d0: 8008 12bd 0714 c9bc 1059 c43d 427a 2ebd
000002e0: 0d18 74bd 030d 95bd b8c1 72be 3906 31be
000002f0: fea1 25bd a575 d03d 3597 083e a550 483e
00000300: 7925 ba3d e49a 143d 9e2f cfbd 5fd1 b13d
00000310: a222 a7be 47db 9fbe 873c e63b 2b41 063e
00000320: 1cae 9ebd 6d32 9e3d e9e4 f8bc 95f9 2e3e
00000330: b79a 033d 6de9 23be b2c4 00be 9eff adbd
00000340: 532f abbd d640 e4bd 411e d63d d083 1cbd
00000350: 1f7e 443c 2c3c babd a071 7fbe 2456 9ebe
00000360: c144 cdbd de75 103e 113a 703d a6b5 163e
00000370: e03a 313d dc61 283e 55d8 ff3d 8df0 8b3e
00000380: bb7a 85be d6f6 92be 25c6 1bbd 6d78 c53c
00000390: 609e 49be 75c6 763c b9da 893d 778d 2d3e
000003a0: 1cce 88bb 56d6 18be 1220 03be 5e92 8dbd
000003b0: 1a45 4fbd c4bb 243d eff5 283e c0c0 123e
000003c0: 1c65 8abb af70 bbbd 844e 7cbe 6df0 31be
000003d0: edce 943d 3c7e c23d 7271 85bc d477 033d
000003e0: 3604 cabd 8115 03bb e061 96bc 1f9a 7abd
000003f0: bd1a 55be 5a2d e6bd 1a6a 8bbd b31c 7abd

1.bias f4 [100]
0.1580444 -0.033735696 -0.37853706 0.5990012 -0.038714617 0.31474817 -0.029360425 0.6489897
0.03216481 0.3266112 0.0059947697 0.26692086 -0.124258876 0.72171074 0.5231141 -0.30336627
-0.2728419 0.17717312 0.017988537 0.18481463 -0.0314961 0.022846116 0.36457768 -0.25338504
0.18344097 0.6659944 -0.004793079 -0.5474915 0.10691717 -0.018375702 0.08863055 -0.0815968
-0.0018773017 -0.40594086 -0.3485233 0.589067 -0.04151764 -0.03833047 -0.020176256 0.117072135
0.139245 -0.0049602943 0.48678666 0.79400414 -0.03153173 0.02196739 0.2050773 -0.11214751
0.67412657 -0.2207898 0.011524365 0.62939334 0.154952 -0.047050126 0.0054982253 -0.0070981192
0.70193505 -0.13923225 -0.3295219 0.5170152 -0.033972453 -0.013644765 0.23903862 0.30396208
0.16395478 -0.24158686 0.7820179 0.46596733 0.31739163 0.59496385 -0.044226564 0.5287798
-0.22420092 0.4773568 0.036831286 -0.03467005 -0.019780185 0.35893005 0.014090466 0.14677787
0.40979335 -0.25445005 0.14224921 -0.24269827 -0.18277574 -0.033575058 0.43526635 -0.0073590665
0.34955272 0.6957017 0.07333198 -0.09211411 0.07676178 0.49813753 0.33717707 0.19752376
0.5869976 -0.29569042 0.5953364 0.17181103
00000000: 64d6 213e 712e 0abd 9ccf c1be 2558 193f
00000010: 3893 1ebd ac26 a13e 4685 f0bc 3024 263f
00000020: 3fbf 033d 9539 a73e c66f c43b daa9 883e
00000030: 707b febd 09c2 383f ceea 053f d352 9bbe
00000040: efb1 8bbe df6c 353e b25c 933c 0c40 3d3e
00000050: 0e02 01bd c727 bb3c eda9 ba3e afbb 81be
00000060: f3d7 3b3e 9c7e 2a3f 430f 9dbb 6728 0cbf
00000070: 64f7 da3d a488 96bc ef83 b53d 391c a7bd
00000080: cb0f f6ba 7bd7 cfbe a571 b2be 18cd 163f
00000090: 670e 2abd 6900 1dbd ad48 a5bc 84c3 ef3d
000000a0: 3e96 0e3e f789 a2bb 1a3c f93e db43 4b3f
000000b0: 6a27 01bd f5f4 b33c c9ff 513e 98ad e5bd
000000c0: 8f93 2c3f b916 62be b1d0 3c3c ec1f 213f
000000d0: bdab 1e3e a2b7 40bd 752a b43b 5797 e8bb
000000e0: 04b2 333f e692 0ebe 18b7 a8be 1c5b 043f
000000f0: b326 0bbd 4b8e 5fbc 8ac6 743e eba0 9b3e
00000100: c3e3 273e 8c62 77be 5332 483f 4593 ee3e
00000110: 2881 a23e 8d4f 183f ea26 35bd 1d5e 073f
00000120: ed94 65be 1c68 f43e 67dc 163d 2f02 0ebd
00000130: 0e0a a2bc aec5 b73e b3db 663c f04c 163e
00000140: 6fd0 d13e 4747 82be c7a9 113e e585 78be
00000150: 9029 3bbe 0086 09bd 3bdb de3e 5324 f1bb
00000160: 93f8 b23e 8219 323f 142f 963d 53a6 bcbd
00000170: 4835 9d3d e20b ff3e 79a2 ac3e ab43 4a3e
00000180: 7a45 163f bc64 97be f767 183f 3bef 2f3e

4.weight f4 [10, 100]
-0.16441627 -0.15493608 -0.11562156 -0.21039872 0.051595178 0.019034978 -0.036035296 0.0698606
-0.00646517 0.021482589 0.066547185 -0.26047134 0.12956093 -0.08202087 -0.66106904 -0.009520828
-0.2697988 0.040596128 -0.052588787 -0.060454734 0.07544142 -0.083912216 -0.19393069 0.040945478
0.071201526 0.14310187 0.069076955 -0.17962894 -0.024680683 0.07596725 0.039752375 -0.0052600214
-0.000560694 -0.016261514 -0.30157202 -0.16345212 -0.08535487 0.0035291512 0.04438123 -0.09720733
-0.18369783 -0.018713906 0.20656642 -0.4207039 -0.009953166 -0.004389362 -0.5823117 0.21347016
-0.65058726 -0.30739877 0.07313471 0.11528878 0.14515583 -0.23440503 -0.24955477 -0.09002645
0.11632722 -0.21456116 -0.18810715 0.15783124 0.018629497 -0.014253702 -0.083677016 -0.60246
-0.9224099 -0.2643593 0.101234585 -0.23926224 0.030341368 0.18224037 -0.20019367 0.07387598
-0.0603479 0.11469398 -0.25221506 0.034228623 0.3023644 0.024120329 0.046653695 -0.15715891
-0.15135044 0.1579822 -0.59693176 0.11280255 -0.10679711 -0.08451591 -0.1430308 0.02027757
-0.50960547 -0.3973637 0.03670763 -0.0551652 -0.15630208 0.128945 -0.48000592 -0.075171456
0.26243564 0.053025503 0.15935233 -0.18845819 -0.302099 -0.07119794 0.13654628 0.079020195
-0.028226918 -0.1712835 -0.04409541 0.34814566 -0.0017110951 0.05831443 -0.13459556 -0.53120136
-0.2870101 -0.49046746 -0.9270435 -0.2811268 -0.19372943 0.12242724 0.040851638 -0.17985207
0.06986325 -0.021140495 0.17735414 0.11752666 -0.3691934 -0.58743083 -0.09025887 0.105715394
-0.41002417 0.048027813 0.07444261 -0.3481804 0.05263607 0.13340901 0.3830158 -0.6975093
0.02246895 -0.02111282 0.021986397 -0.32889238 0.22538787 0.08202737 -0.45246375 -0.5809182
-0.43436685 0.0019978075 -0.6341868 -0.5227046 -0.37302044 0.3839472 0.20161724 0.10568186
-0.24421643 -0.107454486 -0.84670454 0.079903685 -0.3874273 -0.17927456 0.31326318 0.1344757
0.023888592 -0.046270065 -0.6063687 -0.12762643 -0.2197568 0.17687474 -0.6896554 -0.24323511
0.046289798 -0.42742106 -0.24396846 -0.4787918 0.1874561 -0.08908183 0.021709604 -0.019072743
0.26502103 -0.39696762 -0.07495802 -0.6424519 -0.5191997 -0.20871364 0.33054262 -0.20942688
-0.5395792 -0.0121162115 -0.5434808 -0.0031975233 -0.4032881 -1.3439579 0.10877718 -0.20281065
-0.797066 -0.35258317 0.278761 -0.29922616 0.033872478 0.20575815 -0.24961631 -0.6333929
0.07034157 -0.3866154 0.15718363 -0.31216687 -0.069667555 -0.111047044 -0.06533891 0.14770177
0.035107598 0.07685545 0.05997628 0.10706834 -0.5342971 0.06891311 -0.7667319 -0.055458106
-0.2554757 -0.18015523 -0.038148012 -0.20811933 -0.05014407 0.08580664 -0.22287689 0.075369835
0.06422892 0.11197376 0.015166356 0.0059982813 -0.030177867 0.038334794 -0.09814509 0.056445383
0.046902817 -0.099777624 0.026044989 -0.31686696 0.003659249 0.010425416 -0.09617166 0.0873231
0.16497292 -0.07339124 0.17322436 0.15807137 0.051913146 0.08501376 -0.36224493 -0.08491673
-0.6743081 -0.20073926 0.07680193 -0.18438332 -0.40664202 -0.29252243 -0.1819428 -0.07214144
00000000: bd5c 28be 90a7 1ebe ffca ecbd c372 57be
00000010: 7755 533d 3eef 9b3c bf99 13bd 1313 8f3d
00000020: c7d9 d3bb 41fc af3c e449 883d 805c 85be
00000030: 9fab 043e 8ffa a7bd d23b 29bf 3ffd 1bbc
00000040: 1123 8abe 2048 263d 5767 57bd 629f 77bd
00000050: 0881 9a3d 2bda abbd c495 46be 72b6 273d
00000060: 1bd2 913d 4c89 123e 3878 8d3d a6f0 37be
00000070: 252f cabc b894 9b3d 63d3 223d 425c acbb
00000080: 8afb 12ba de36 85bc a667 9abe fe5f 27be
00000090: 89ce aebd 5549 673b 18c9 353d a314 c7bd
000000a0: 491b 3cbe e84d 99bc 2686 533e 8066 d7be
000000b0: 9b12 23bc a3d4 8fbb 6112 15bf ec97 5a3e
000000c0: e38c 26bf 5f63 9dbe a7c7 953d 861c ec3d
000000d0: bba3 143e df07 70be 498b 7fbe ca5f b8bd
000000e0: f73c ee3d ecb5 5bbe 299f 40be 839e 213e
000000f0: e39c 983c 5c88 69bc db5e abbd d23a 1abf
00000100: 0e23 6cbf 1a5a 87be 1454 cf3d 2901 75be
00000110: 768e f83c 389d 3a3e 92ff 4cbe 4a4c 973d
00000120: 5c2f 77bd ade4 ea3d 5522 81be 5033 0c3d
00000130: 82cf 9a3e ff97 c53c f217 3f3d 44ee 20be
00000140: 9cfb 1abe 16c6 213e 85d0 18bf 0605 e73d
00000150: 71b8 dabd ad16 adbd ab76 12be 251d a63c
00000160: 8175 02bf 4173 cbbe bd5a 163d e8f4 61bd
00000170: a70d 20be 280a 043e 56c3 f5be 7ef3 99bd
00000180: f75d 863e 4531 593d 422d 233e 2ffb 40be
00000190: b8ac 9abe 3ad0 91bd cad2 0b3e 57d5 a13d
000001a0: 233c e7bc f164 2fbe 639d 34bd 2640 b23e
000001b0: d346 e0ba 1ddb 6e3d 6bd3 09be d0fc 07bf
000001c0: fdf2 92be 8d1e fbbe b952 6dbf daef 8fbe
000001d0: 0261 46be 22bb fa3d 0c54 273d 242b 38be
000001e0: 7714 8f3d d52e adbc 539c 353e d1b1 f03d
000001f0: eb06 bdbe de61 16bf a4d9 b8bd 5081 d83d
00000200: b0ee d1be d0b8 443d 5e75 983d b444 b2be
00000210: eb98 573d 5f9c 083e a61a c43e f88f 32bf
00000220: ce10 b83c cbf4 acbc d11c b43c 9564 a8be
00000230: 14cc 663e f7fd a73d 54a9 e7be 0eb7 14bf
00000240: 5565 debe a6ed 023b 115a 22bf f8cf 05bf
00000250: 89fc bebe ba94 c43e c074 4e3e bb6f d83d
00000260: df13 7abe 1911 dcbd a1c1 58bf 8ba4 a33d
00000270: df5c c6be c093 37be 0864 a03e ffb3 093e
00000280: 02b2 c33c ae85 3dbd fb3a 1bbf 81b0 02be
00000290: ed07 61be a71e 353e 428d 30bf a012 79be
000002a0: 5f9a 3d3d efd6 dabe ded2 79be 3324 f5be
000002b0: 7ef4 3f3e 8970 b6bd 57d8 b13c 713e 9cbc
000002c0: d6b0 873e 573f cbbe 9783 99bd ba77 24bf
000002d0: 46ea 04bf 07b9 55be e23c a93e 0074 56be
000002e0: dd21 0abf 1383 46bc 8f21 0bbf 8a8d 51bb
000002f0: c77b cebe d006 acbf 92c6 de3d 98ad 4fbe
00000300: 840c 4cbf c885 b4be c3b9 8e3e 2c34 99be
00000310: debd 0a3d 44b2 523e 6b9b 7fbe 0926 22bf
00000320: 3e0f 903d 74f2 c5be bff4 203e 56d4 9fbe
00000330: ddad 8ebd a26c e3bd 68d0 85bd 223f 173e
00000340: fccc 0f3d 6466 9d3d b0a9 753d a546 db3d
00000350: b2c7 08bf 5122 8d3d 8b48 44bf 0a28 63bd
00000360: b6cd 82be 9d7a 38be 1741 1cbd 3c1d 55be
00000370: de63 4dbd 64bb af3d d739 64be 805b 9a3d
00000380: 748a 833d 8052 e53d 4f7c 783c 3b8d c43b
00000390: 9337 f7bc f204 1d3d 4b00 c9bd 4633 673d
000003a0: 2b1d 403d 3658 ccbd 4d5c d53c 633c a2be
000003b0: 03d0 6f3b 5dcf 2a3c a6f5 c4bd 74d6 b23d
000003c0: a9ee 283e 254e 96bd ba61 313e 76dd 213e
000003d0: e1a2 543d b21b ae3d 2b78 b9be d3e8 adbd
000003e0: 759f 2cbf 988e 4dbe 554a 9d3d fbce 3cbe
000003f0: 6233 d0be 80c5 95be 374f 3abe e4be 93bd

4.bias f4 [10]
0.12647514 -0.3643561 0.20486724 0.34170076 -0.33599946 0.28338513 0.07716738 0.2137591
-0.26935 -0.7550401
00000000: b382 013e e28c babe b8c8 513e 67f3 ae3e
00000010: 1f08 acbe db17 913e ee09 9e3d aae3 5a3e
00000020: 3ee8 89be 4f4a 41bf
