best-2lstm_model.pt (torch, 42139 bytes, 10 tensors)

embedding.weight f4 [500, 16]
000000 af 3f c2 bd 20 f8 90 bf 8b 21 64 bf 5e 7f af bf
       -0.09484803 -1.1325722 -0.8911368 -1.3710744
000010 7c 08 b6 bf c6 1d b5 be 67 6b 09 bf 81 19 8d be
       -1.4221339 -0.35374278 -0.5367951 -0.2755852
000020 be 5f 85 3f 76 e0 73 3d 24 c1 45 3f 53 95 b8 3e
       1.0419843 0.059540235 0.77247834 0.36051425
000030 52 1b 0a c0 66 4f fb 3e 6c 62 a5 bd a4 75 de bf
       -2.1579175 0.49084014 -0.08075413 -1.7379651
000040 ab 2f b2 bf ee f7 91 3f 31 a9 ec bc 12 bc 76 3e
       -1.3920797 1.1403787 -0.02888927 0.2409518
000050 fb 92 c2 bf 7b 41 cf bf 93 3c 87 be a6 23 59 be
       -1.5201105 -1.6191858 -0.26413402 -0.21205005
000060 35 d4 87 3f 15 c4 c4 3d 62 64 44 bf 1c 93 c0 bf
       1.0611635 0.09607712 -0.7671567 -1.5044894
000070 a3 c8 83 3e 50 d4 8d bf 74 57 ad bf ca 90 6b 3f
       0.2573901 -1.1080418 -1.3542314 0.92017806
000080 4e 9d 8e 3e e1 c2 c4 bf 12 a0 a7 3f c2 0a 27 bf
       0.2785439 -1.5371972 1.3095725 -0.6525079
000090 67 8b 03 c0 10 96 b8 bf ac c7 9e bf ea cd 7e 3f
       -2.0553834 -1.4420795 -1.2404685 0.9953295
0000a0 0c c4 f7 3e c6 91 00 be 01 64 22 bf c8 81 a2 3f
       0.4839176 -0.12555608 -0.63433844 1.2695856
0000b0 48 57 b8 3e 6f 2e 4c 3f fa 36 23 3f 2e 16 83 3e
       0.3600409 0.7975835 0.6375576 0.2560286
0000c0 2e 8f a3 3f ab 4e 79 3f c7 df e1 3f 22 9d 22 3f
       1.277807 0.9738566 1.7646416 0.63521016
0000d0 7e 85 8f bf 1e db 43 bf 47 47 69 bf 2f 91 21 3f
       -1.1212614 -0.7650622 -0.91124386 0.6311216
0000e0 8c 42 54 3f 89 7e b4 be d8 ce f8 3e 44 51 04 40
       0.8291404 -0.3525279 0.4859531 2.06746
0000f0 7c 9b 38 be 9f ad d9 be 67 e3 d3 3f f4 a8 bd bf
       -0.18028063 -0.42515275 1.6553773 -1.4817185
000100 8e 55 91 be 9a 4e 02 bf 66 62 e8 bd 83 ee f4 3e
       -0.28385586 -0.50901186 -0.11346893 0.4783822
000110 bc bb 73 bf ae 45 65 bf 03 e4 1f bf 69 6d e6 be
       -0.95208335 -0.8955945 -0.62457293 -0.45005348
000120 46 4d 86 bf dc 21 fb 3e f1 b4 e4 3e 49 e3 00 3e
       -1.0492332 0.4904927 0.44669297 0.12586702
000130 8b 6e a3 3f b6 2e 18 3e 85 9b 3e 3f 39 0b 2d 3f
       1.276811 0.14861569 0.74456054 0.6759525
000140 28 9b 89 bd 16 68 38 bf 9e 37 c5 bf 59 26 c4 3e
       -0.06719047 -0.7203382 -1.5407598 0.38310507
000150 5d a8 89 3f dd b1 4a bf 9d 21 42 3d 8b 4d fa 3e
       1.0754505 -0.7917765 0.047395337 0.48887286
000160 e5 69 15 be 26 2b db be ef 12 02 bf a8 b2 d3 bf
       -0.14591177 -0.42806357 -0.5081014 -1.6538897
000170 3d ab cc 3f fa 71 6c 3f 01 68 c5 3f 7b 29 06 c0
       1.5989758 0.92361414 1.5422364 -2.0962818
000180 31 f9 a8 bf a3 5b 87 bc 7c 26 e2 be fe 9a b0 bf
       -1.3201047 -0.016523188 -0.44169986 -1.37973
000190 dd 0c 76 bf c2 d1 80 be 97 43 13 bf 99 cf ba 3d
       -0.9611338 -0.25160033 -0.5752501 0.09121627
0001a0 43 1a 27 3f 11 29 1c 40 c4 41 dc 3f 1c c7 b9 3e
       0.6527445 2.4400065 1.720757 0.3628472
0001b0 2c f4 43 bf 15 3a fc 3f a2 c0 b8 bd f5 6d 38 3f
       -0.7654445 1.9705225 -0.09021117 0.7204278
0001c0 47 4c 8e bf ea 24 b6 bf 99 18 4c be 71 39 ce 3f
       -1.1117028 -1.4230015 -0.19931258 1.611128
0001d0 0e f8 ec be 6e 6f 39 3f 0a c1 b6 bf b2 55 7b 3b
       -0.46283 0.72435653 -1.4277661 0.003835064
0001e0 f0 3c 3e bf e8 2f ad be fb a7 2c bf 5f 62 2a 40
       -0.74311733 -0.33825612 -0.6744382 2.662254
0001f0 a4 5b f6 3e 10 14 b9 3f 99 b7 e1 bf 75 e3 d3 3f
       0.4811679 1.4459248 -1.7634155 1.6553789
000200 f9 de e7 3f 8d 4a aa be bf d2 bd 3e 90 cd 97 be
       1.8114921 -0.33260003 0.3707485 -0.2964902
000210 57 c7 4e bf e7 83 26 3f 5d 5d 10 c0 64 b8 d1 3e
       -0.8077292 0.65045017 -2.2556984 0.4096099
000220 9e c9 01 3f 1a 72 42 bf 4e 89 8a bf 15 23 69 3f
       0.5069827 -0.75955355 -1.0823152 0.91069156
000230 89 48 5a bf 38 69 bb be 08 be 0c bd ba fd d5 3f
       -0.8526693 -0.36603713 -0.034360915 1.6718056
000240 bf 04 d6 be f1 d7 2e 3f b5 ec 46 3e e8 42 75 bf
       -0.41800496 0.6829825 0.19426234 -0.95805216
000250 df 66 9a 3f 7c 66 68 bd 6f 8d ce 3f 09 87 45 bd
       1.2062644 -0.05673836 1.6136912 -0.048224483
000260 80 37 58 bf 30 8a b5 bd aa 57 97 3e 3b bf 82 bf
       -0.84459686 -0.08864248 0.2955907 -1.0214609
000270 f5 c6 3a bf db 3f f6 bf f0 d7 89 bc ee 6c 0e c0
       -0.72959834 -1.9238237 -0.0168266 -2.2253985
000280 b7 de a6 bf 32 d9 18 3f bc 30 e2 3e b2 1d 46 3f
       -1.3036717 0.59706414 0.44177806 0.7738906
000290 16 f8 68 3f 30 7c 92 bf 0d ee 21 bf 31 fe 95 bf
       0.9100355 -1.1444149 -0.6325386 -1.1718198
0002a0 49 15 b2 bf 0d 6e 06 bf 79 ca 26 bf 41 92 99 bf
       -1.3912746 -0.52511674 -0.651527 -1.1997758
0002b0 c5 d7 17 3f 6a de ad bf 62 73 e6 3f ec 65 58 be
       0.59313613 -1.35835 1.8003962 -0.2113263
0002c0 85 33 7a bd 36 09 96 be 88 93 aa 3f 8c 33 97 be
       -0.06108429 -0.29303902 1.3326273 -0.29531515
0002d0 27 7d ac bf 7b aa 8f 3e 30 41 49 3f ac 07 15 3f
       -1.3475693 0.28059754 0.78615093 0.5821483
0002e0 7b 43 d1 3e c0 67 d1 3d da 1f 0f 40 51 6f a5 3d
       0.40871796 0.10224867 2.236319 0.080778725
0002f0 d2 19 d3 bf e1 0b 52 bf f3 8a d6 be 19 7a 34 3e
       -1.6492255 -0.82049376 -0.41902885 0.17624702
000300 a6 14 1a bf b7 dd 4d bd 17 05 42 bf ef 94 08 bf
       -0.60187757 -0.050260272 -0.75789016 -0.53352255
000310 84 d8 a1 3f 88 96 c1 bf 7b 82 13 3e d5 88 68 3f
       1.26442 -1.5124063 0.14405243 0.9083379
000320 18 77 bd 3d b9 34 9d bf 8c 95 40 3f 69 f7 f1 be
       0.09251231 -1.2281715 0.7522819 -0.4725907
000330 c2 c8 bd 3f 24 f1 21 c0 53 5e be 3f aa 33 22 bf
       1.4826891 -2.530343 1.4872535 -0.63360083
000340 47 80 f0 be 4d 8a b0 3f 4a 7b 77 bf 23 b0 50 3f
       -0.46972868 1.3792206 -0.966725 0.81518763
000350 93 a0 04 3f b5 b6 d9 bf a5 bb 1c bf ae 0d b5 be
       0.51807517 -1.7008883 -0.6122382 -0.35362
000360 75 72 a2 bf 19 d3 91 bf 6b 2d a8 3e 05 8a 7e be
       -1.269118 -1.1392547 0.3284715 -0.24857338
000370 17 79 8c 3e 64 78 cb be 0b 69 60 3e db 64 cc 3c
       0.27436134 -0.39740288 0.2191507 0.024950435
000380 f2 ab 98 bf 57 c7 2e 3e eb ca e5 3f 4e b0 4a be
       -1.1927474 0.1706823 1.7952551 -0.19793817
000390 12 6d 9c 3f 65 fd a4 3d 8a 15 74 bf 26 ae 61 be
       1.2220786 0.08056144 -0.95345366 -0.22039089
0003a0 60 fe d0 3f a3 2d 67 bf e5 56 2d bf 78 cd 15 bd
       1.6327629 -0.9030401 -0.67710716 -0.036572903
0003b0 32 eb 18 40 23 b2 b0 bf c2 4a ad 3f 85 cd 0d c0
       2.3893552 -1.3804363 1.3538439 -2.215669
0003c0 1d 78 e6 bf eb 21 94 bf 8e 84 c4 bf 60 c8 a6 3e
       -1.8005406 -1.1572851 -1.5352952 0.3257475
0003d0 1b 1a 85 3e 10 42 f0 3e 3a ee 36 bd 1a 5b db 3e
       0.2599648 0.46925402 -0.044660784 0.42842942
0003e0 6e 01 8d bf 89 4a 18 40 bf ca af be 6d bd a3 be
       -1.1016061 2.3795493 -0.3433437 -0.31980458
0003f0 b1 51 7e bf 8f 3f 10 bf 1c ed f9 be 76 33 98 3e
       -0.993434 -0.5634698 -0.48813713 0.29726762

lstm.weight_ih_l0 f4 [32, 16]
000000 fa 8c 1b bf d8 29 e6 3e 7e 4c 84 3b 70 cd 30 be
       -0.6076199 0.449538 0.004037439 -0.17265868
000010 51 08 1a 3e 08 4a b0 bb f4 ca a1 3e 92 7e 45 be
       0.15042235 -0.005379919 0.31600153 -0.19286564
000020 38 4b 9b 3e e4 da 8f bd 08 a5 90 be ab 17 0c bf
       0.30330825 -0.07024172 -0.2825091 -0.54723614
000030 24 30 65 3e 97 b1 c9 be 87 47 43 3e 4a b2 e0 bd
       0.22381645 -0.39393303 0.19070254 -0.10971506
000040 b8 22 3f be eb 7f 28 be 22 38 9a be ad ef ca bd
       -0.18665588 -0.16455047 -0.3012095 -0.09908996
000050 4d 4f b5 3a 4e f2 e0 3e 5b 41 80 3c 89 b7 a2 3d
       0.0013832838 0.43934864 0.015656164 0.07945163
000060 0d 6f dd bc d0 f0 9e 3e f7 60 7f be 89 3f 96 bd
       -0.027030492 0.310431 -0.24939333 -0.07336337
000070 1a 7d 91 3e cc 5c 0f 3e d1 10 43 3e 70 ed 7d be
       0.28415757 0.14000243 0.19049384 -0.24797606
000080 a2 fa 1b 3e 6b df a0 3e c5 00 35 3e e7 bf 16 3f
       0.15232328 0.31420454 0.17676075 0.5888657
000090 3e 7e 55 3e e7 6a 73 3e 54 80 51 3e ea 88 ca be
       0.20848939 0.23771249 0.2045911 -0.39557582
0000a0 90 ab 81 be a6 f6 1c 3f 32 02 93 3e 3f 20 3b be
       -0.25326204 0.61313856 0.28712612 -0.1827402
0000b0 86 7e 99 bd 04 73 eb 3c d4 aa cb bd 05 fb 64 3e
       -0.074948356 0.028741367 -0.09944692 0.22361381
0000c0 37 23 9e 3e 7c 78 7e 3e 9e da 82 3e f0 66 eb 3d
       0.30886242 0.24850649 0.25557417 0.11494243
0000d0 20 36 8a bd 84 97 e7 3d 8a 24 34 be a9 cb 99 3d
       -0.06748605 0.11308196 -0.17592064 0.07509548
0000e0 46 6a 35 3d 32 e5 d7 3d e2 47 98 be 6b 7e 88 bd
       0.044290803 0.105417624 -0.29742342 -0.06664737
0000f0 e2 9c 05 be c1 5e aa 3e fc 8f 5a be e4 a8 68 bd
       -0.13048127 0.33275416 -0.21343988 -0.05680169
000100 6c 12 d1 bd 42 d0 b1 be 72 e8 54 bd 1d 3f 57 be
       -0.10208592 -0.347292 -0.05197949 -0.2102017
000110 d9 85 07 3e b6 7d 22 3e 1e 46 ea 3c 24 be 2a 3d
       0.13234653 0.15868267 0.028597888 0.04168524
000120 5f b8 4d 3e 0c c7 2a be 85 b8 0f 3e f6 20 00 be
       0.20089863 -0.16677493 0.14035232 -0.12512574
000130 6c e4 be be 1c 67 ec 3e b2 48 eb bc 74 c4 37 bd
       -0.37283647 0.46172416 -0.028721187 -0.044865087
000140 33 cf dd bd 2a 1f fd bd 3f 31 81 3e 25 5d 9a 3e
       -0.10830536 -0.1235946 0.25232884 0.3014919
000150 ca 68 3b 3e 07 d2 d1 3e 6f 24 cc 3d a5 dc 79 3e
       0.18301693 0.4098055 0.09967887 0.24400575
000160 72 b2 e7 3d 41 b8 84 3e eb 95 3d bd c8 8f 71 be
       0.113133326 0.25921825 -0.04628555 -0.23590004
000170 33 95 8c 3e 37 32 c2 bd 84 dd 10 bd 40 e6 8b be
       0.2745758 -0.09482234 -0.035367504 -0.27324104
000180 ba 30 b8 bc 21 73 0a 3f 5e a5 d9 bc b2 a0 e7 bd
       -0.022484172 0.5408192 -0.026568111 -0.11309947
000190 82 f6 d0 be 7d b4 40 3d 57 42 0e be c2 88 18 3e
       -0.4081307 0.047047127 -0.13892494 0.14895919
0001a0 a6 7f 24 3e 33 3b 3d 3e 2d 0f a5 3e 46 39 b5 3e
       0.16064319 0.18479614 0.3223814 0.3539526
0001b0 18 ac 87 3e 22 7c da 3e 60 3b 12 bd 55 71 b4 3e
       0.26498485 0.4267283 -0.035701156 0.35242715
0001c0 2d 0c 82 3e 0e b0 9a be f3 86 93 3e 9f 73 91 be
       0.25399914 -0.30212444 0.28813896 -0.28408524
0001d0 75 60 fe bd 38 13 dd bd 14 92 0a bd 91 68 94 be
       -0.124207415 -0.10794681 -0.033830717 -0.28986028
0001e0 24 f4 81 3e ec 06 7d 3e 56 a3 59 3e 6f 01 c8 3e
       0.25381577 0.24709672 0.21253714 0.39063594
0001f0 44 75 c4 3d 81 78 a9 3e 70 08 91 be 63 f8 b3 bd
       0.09592679 0.3309975 -0.2832675 -0.087876104
000200 f3 04 c0 3d 06 24 98 be e0 e6 a4 be 6f 2d 7d bd
       0.09375944 -0.29714984 -0.32207394 -0.061810907
000210 45 f9 a1 3e a1 12 fd bd 1f c5 2c be 15 d6 fe bd
       0.3163549 -0.12357069 -0.1687207 -0.12443177
000220 8a 80 d3 be 84 0a 5b bc a0 e5 f2 bc 3f 8e 7a 3e
       -0.41309005 -0.013369206 -0.02965051 0.24468325
000230 33 21 18 be ab 31 13 3e 57 b5 10 be 60 4a 82 be
       -0.14856414 0.14374416 -0.14131676 -0.2544737
000240 a3 ec 83 bc cb c4 27 be 38 43 48 bc 59 17 b4 3c
       -0.016104048 -0.16383664 -0.012223057 0.02198379
000250 a5 25 36 3e 50 f6 e1 be ef 36 92 be 94 8b 96 3e
       0.17787798 -0.44133234 -0.28557536 0.29403365
000260 52 33 fb be 34 16 b6 be ad 92 7d 3e 77 bd 83 3e
       -0.49062592 -0.35563815 0.24762984 0.25730488
000270 6f 16 ab be 89 07 86 3e a1 04 a7 be df 98 63 be
       -0.33415553 0.26177624 -0.3262072 -0.22226284
000280 41 35 2a 3a d5 d2 cb 3e 7c 36 a3 be 30 d6 f4 ba
       0.0006492921 0.3980929 -0.31877506 -0.0018679556
000290 d3 5c cd 3c ff 30 8c 3e cf c6 6d 3e 14 bf 94 bd
       0.025068676 0.2738113 0.2322037 -0.07263008
0002a0 ff 0c 9c 3e 37 63 b9 3d 2d ef 21 be 98 ff 6b 3e
       0.30478665 0.09052127 -0.15813895 0.2304672
0002b0 d9 24 2e 3f 53 05 a1 3d ec 3e 94 3e bb f7 72 be
       0.68024975 0.07862344 0.28954256 -0.23727314
0002c0 43 b4 74 be 11 f8 b6 3e 9a d3 56 be b5 60 21 be
       -0.2389689 0.35736135 -0.20979157 -0.15759547
0002d0 df 1c da bd 8f a5 89 3d cb ff 9b 3d 89 7c c1 3e
       -0.10650038 0.06721031 0.07617148 0.37790325
0002e0 97 cd c3 3d 7c 04 41 be 6b 7f 7c be 5e 68 88 3c
       0.095606975 -0.18849367 -0.24657981 0.016651329
0002f0 17 6b b8 3e 4b 0a be be bb bc 0d bd 3f 0c 01 3e
       0.36019203 -0.37117228 -0.034603816 0.12602328
000300 6b c3 4b bd 9b 4a 6d be be 67 8d be 45 85 93 be
       -0.049746912 -0.23172991 -0.27618212 -0.28812614
000310 fa b3 dd bd 06 9f 53 bd 80 97 9b be 43 47 4d bd
       -0.108253434 -0.05166533 -0.30389023 -0.05011679
000320 11 18 ee 3d 96 90 8b 3d d6 dd a5 3e d2 fc 61 3a
       0.11625684 0.06814687 0.3239581 0.0008620742
000330 58 fa 8b 3e dd 27 89 bd 97 c9 94 be 12 c6 82 3e
       0.27339435 -0.066970564 -0.2906005 0.2554174
000340 3d 06 38 3e 32 7d db 3e 89 ab f9 bd 2d d7 84 3e
       0.1797113 0.42868954 -0.12190921 0.25945416
000350 d5 81 2e 3d 26 5c 22 3d a1 24 83 be 31 39 0f 3e
       0.042604286 0.03963866 -0.25613883 0.1398666
000360 c8 83 05 be eb 93 63 be 0f b4 02 3e 3c f2 a7 3e
       -0.13038552 -0.22224395 0.12764 0.32801998
000370 d8 eb c0 3d 6e 9b 7b be 44 2b 81 3d f0 81 74 be
       0.094199836 -0.2457101 0.063070804 -0.23877692
000380 c1 91 a3 3e b5 ea eb bc c3 d9 42 be a1 22 05 bd
       0.3194714 -0.02879844 -0.19028382 -0.032503728
000390 2e c0 c8 3e ec e8 24 be d5 00 e4 3c 5a 63 33 bd
       0.3920912 -0.16104478 0.027832428 -0.04379592
0003a0 d1 fb aa be 60 53 9e be 2a 9d 08 be 35 ae 1a 3f
       -0.33395246 -0.30922985 -0.13341203 0.6042207
0003b0 f5 f9 10 be 2f 53 9d 3e 39 51 54 be 34 20 18 3e
       -0.14157851 0.30727527 -0.20734109 0.14856035
0003c0 3f dc 2e be 25 da c7 bc 89 4e 66 bd 50 1e e5 bd
       -0.17076205 -0.024396012 -0.05622724 -0.11187422
0003d0 03 9b 93 3e 79 12 01 bf df a2 47 3e a9 57 1e be
       0.28829202 -0.5041881 0.19495724 -0.15463127
0003e0 93 65 a0 3d 22 17 dc be 22 bf 20 3e 9b 14 92 3e
       0.07831874 -0.429864 0.15697911 0.28531346
0003f0 0e 1e 0e be e5 64 96 bd 4e 85 a9 3d e8 7e 4a 3d
       -0.13878652 -0.07343463 0.08277379 0.049437433

lstm.weight_hh_l0 f4 [32, 8]
000000 56 4e ff 3d 2f 69 82 3e ae 47 5c 3e 3a 4d 9b be
       0.12466113 0.25470874 0.21511719 -0.30332357
000010 44 c2 52 3d b1 dd 95 bd 8f 60 a1 3d e8 99 e5 3c
       0.051454797 -0.07317675 0.07879745 0.02802749
000020 34 d0 c8 3e 76 b0 20 bf 3a ff b3 bd bb a6 a1 bd
       0.39221346 -0.6276926 -0.08788915 -0.078931294
000030 6f 75 b4 3c 98 87 bd 3b 74 92 29 be 68 b8 ea bd
       0.022028653 0.0057839863 -0.16559774 -0.11460954
000040 cc 95 4f 3e 01 85 6d 3d d4 69 51 bb 50 e9 7a 3e
       0.20271987 0.05798817 -0.0031953948 0.24503064
000050 50 39 ab be e3 0d 8b 3d b1 9c 52 bc c2 5c 0f 3e
       -0.33442163 0.06789758 -0.012854741 0.14000228
000060 2a 16 03 be 85 34 28 3e 6a 60 52 3e 57 60 1a 3e
       -0.12801424 0.16426285 0.20544592 0.15075813
000070 3e d6 c2 3d 14 99 8e be c0 02 72 be c2 20 35 3e
       0.0951352 -0.27851164 -0.23633862 0.17688277
000080 64 b1 81 3e e8 17 96 3e 11 3a 52 bd 65 27 38 bd
       0.2533065 0.29315114 -0.051324908 -0.044959445
000090 e8 5d a1 bc 89 e6 02 be 79 6f 2b 3e 22 1c 5c be
       -0.019698098 -0.12783255 0.16741742 -0.21495107
0000a0 f8 ae 1e 3f da b0 a1 be cc 79 9f 3c 32 9c b0 be
       0.6198573 -0.3158024 0.019467257 -0.34494168
0000b0 c0 60 22 3d d1 be d8 3e 4f d5 10 3e 81 25 b1 3e
       0.03964305 0.4233308 0.14143871 0.34598926
0000c0 21 72 19 3f 71 35 aa bd 18 76 96 3e d9 26 67 be
       0.5993977 -0.083109744 0.29386973 -0.22573413
0000d0 3c 67 27 3e da c9 f9 bb 7a 73 59 3e e6 be a3 3e
       0.16347975 -0.0076229395 0.21235457 0.3198158
0000e0 30 72 f8 3e 63 7f 0e be 6c 48 cd 3d ad 40 47 be
       0.48524618 -0.13915782 0.10023579 -0.19458266
0000f0 2f a4 6d 3e c1 11 f4 3e 6a a6 c4 be 4b b7 5e 3e
       0.23207162 0.47669795 -0.38408214 0.21749608
000100 7f 76 98 3e 59 96 7f be c6 99 97 3e 24 58 b1 3d
       0.29777905 -0.24959697 0.29609507 0.086593896
000110 91 c3 03 bd 64 52 0f 3f 12 a7 57 3d c2 5e c3 3e
       -0.03216893 0.55985093 0.052649565 0.38158232
000120 ed 81 94 3e 63 f3 a7 3e 05 0b 70 be 80 5b 5f be
       0.29005376 0.32802877 -0.23441704 -0.21812248
000130 59 ca 04 be ec d9 8d 3e 6f 0d 97 bd b8 75 b5 3e
       -0.12967815 0.27705324 -0.07375609 0.35441375
000140 41 bd 02 be ae b8 e0 3d 3c 03 95 bb 18 3e dc be
       -0.12767507 0.10972725 -0.0045475047 -0.43016124
000150 7f 7e 0e 3d 09 f4 06 bf f2 a9 08 3f 61 c4 0d 3e
       0.034788605 -0.5271612 0.53384316 0.13844444
000160 1c de 7c be 49 30 2b be 9a 55 ed 3d 43 bf 35 3e
       -0.24694103 -0.16717638 0.11588593 0.17748742
000170 43 b5 16 3e 70 f7 9a be ae 85 3a be 2e f4 b3 be
       0.14717583 -0.30266905 -0.18215057 -0.35147232
000180 23 a4 6d 3e 81 bf b4 be 09 29 76 3e 7a 7f 1b be
       0.23207144 -0.35302356 0.24039091 -0.15185347
000190 9e 4e d5 bd 21 dc ba 3e 36 b2 87 3e 77 f4 8d 3e
       -0.10415386 0.3649607 0.26503152 0.27725574
0001a0 34 d5 96 3d 2b d2 75 3e d0 22 a8 3e d2 b4 09 be
       0.07364884 0.24005954 0.3283906 -0.13447884
0001b0 6b 58 b5 3e ea 19 2b be fe bd 81 3e f9 da 0e be
       0.3541902 -0.16709104 0.25340265 -0.13950719
0001c0 f9 f8 74 bd d9 2f b6 3e dc 53 4e bd a9 41 69 be
       -0.05980775 0.3558338 -0.050372943 -0.22778954
0001d0 d7 60 1f 3e 1e c5 1a bf eb b1 c4 3e dc 5a f6 3d
       0.15564285 -0.60457027 0.3841699 0.12029049
0001e0 44 ae 92 3e 60 b4 39 be 7d e8 d5 3d 81 50 83 3e
       0.2864858 -0.18135214 0.10444734 0.25647357
0001f0 8b 68 da 3e b7 6c 9e 3e 08 d2 92 be ab 70 4a 3e
       0.42657885 0.30942318 -0.28675866 0.19769542
000200 53 c9 cd 3d ad 5e 3d be f9 a2 17 3e e9 e8 a9 3d
       0.10048165 -0.18493147 0.14808263 0.08296377
000210 b1 c1 c0 3e ce e4 3a 39 94 14 11 3e c9 d3 89 3d
       0.37647775 0.00017823579 0.14168006 0.06729848
000220 0d 49 a4 be c5 ba 8d be 09 eb 04 3e 4a 1b b0 bd
       -0.32086983 -0.27681556 0.12980284 -0.08598955
000230 d2 90 a1 be 78 c2 26 3d 79 40 28 be c1 aa f2 3d
       -0.31555802 0.040712804 -0.16430844 0.11848975
000240 9c aa a9 3d 1e b8 54 be 3b e0 35 bc 09 c9 60 be
       0.08284494 -0.2077336 -0.011100824 -0.21951689
000250 01 36 8b bc 6e 15 bc bd 24 85 a0 3d 1c 51 ab bd
       -0.016993525 -0.09183775 0.078378946 -0.0836508
000260 85 30 d0 bb 76 a2 45 be e0 18 ab be 8e 9c 1a 3e
       -0.00635344 -0.19300255 -0.33417416 0.15098783
000270 ad c1 ec 3d 20 d6 6e 3e 98 ca b5 be ce 50 7b be
       0.11560378 0.2332387 -0.3550613 -0.24542543
000280 cf 5e 07 3e b1 57 a1 be 3b 39 a2 be 06 fe 37 3d
       0.1321976 -0.31512216 -0.31684288 0.04491999
000290 7c 90 01 3f 20 11 23 3f f7 b1 86 3e 7c 3a 1c 3e
       0.5061109 0.63698006 0.2630765 0.15256685
0002a0 4a f6 f6 3d 8f 1d 0b bd 65 69 46 be 27 88 9c 3e
       0.12058695 -0.033963736 -0.19376142 0.30572626
0002b0 d1 7b 0d 3e 33 db 27 3e ff b4 68 3e 5b 1d 76 3e
       0.13816763 0.16392212 0.22725295 0.24034636
0002c0 24 e7 7c 3e cb d8 4b be db 47 a0 3e 9b fe f8 bd
       0.24697548 -0.19906919 0.3130482 -0.12157937
0002d0 07 eb 96 3e 52 15 ec be 6f fe d1 3d ca 78 a8 be
       0.29476187 -0.46110016 0.102536075 -0.32904655
0002e0 08 64 e8 3e 4d 57 bd 3c 2e 04 45 3e dd 75 04 be
       0.45388818 0.023112917 0.19239876 -0.12935586
0002f0 0c e5 78 bd ae 5f 16 3d a2 42 9d be d0 33 b7 3e
       -0.06076531 0.03671234 -0.307149 0.35781717
000300 41 d2 10 3e 7c 14 d3 3d ca a4 ec bd c2 c4 fb bd
       0.14142706 0.103066415 -0.115548685 -0.12293388
000310 19 df a7 3e 9d 45 2f 3f 4b e8 08 3d 92 8b b3 3e
       0.32787398 0.68465596 0.033424657 0.3506742
000320 f9 0f 34 3e 7f ba be bd 95 dc b9 bc 60 c0 9d be
       0.17584218 -0.09312915 -0.02268819 -0.30810833
000330 6f 33 87 3e 94 e8 02 3d 6c 60 80 3d 03 68 d1 3d
       0.26406428 0.031960085 0.06268391 0.10224917
000340 18 5f 01 bd d0 cc d9 3a 23 22 bb 3d 10 90 09 be
       -0.03158483 0.0016616825 0.091373704 -0.13433862
000350 e8 ac 68 be 96 bc f8 be cf 29 02 ba 82 d6 55 be
       -0.22722208 -0.4858138 -0.00049653364 -0.2088261
000360 37 9a 48 3e 8a c7 3d 39 15 fe 8d 3e 77 43 16 be
       0.19590078 0.00018098779 0.27732912 -0.14674173
000370 74 9a 00 be 6c 7e 25 3d d7 75 99 3e f5 ea c0 bd
       -0.12558919 0.04040377 0.29972717 -0.094198145
000380 ab ca 9b 3e 8d 97 31 3e 5d 7d 9f bd ee be ce bd
       0.3042806 0.17342968 -0.07787583 -0.10095011
000390 3e 92 77 3e 99 69 82 3e 32 40 b6 3e aa 69 ae 3d
       0.2417688 0.2547119 0.35595852 0.085162476
0003a0 b6 66 0c 3f ec 5f 2e 3e 4b a4 65 3e 00 85 61 3e
       0.54844224 0.17028779 0.22425954 0.22023392
0003b0 b3 ed 5d 3e 52 98 a1 bd f9 9d ef 3e b7 0e e8 3e
       0.21672706 -0.07890381 0.4680021 0.45323727
0003c0 c6 43 95 3e 6b ca 88 bc ef 67 11 3f 0b 57 fe bd
       0.2915327 -0.016698083 0.56799215 -0.12418946
0003d0 bd 32 d3 ba 62 9d 40 bf 6d c0 53 be 6a 77 5a bd
       -0.0016113144 -0.7524015 -0.20678873 -0.05333654
0003e0 c5 e7 53 3e c8 23 0b 3e 40 70 99 3d 56 df 03 bd
       0.20693882 0.13587868 0.07492113 -0.03219541
0003f0 7a 1e b8 3d f9 48 ca 3e 39 75 b0 bd 44 df 80 3e
       0.08990188 0.395088 -0.086161084 0.25170338

lstm.bias_ih_l0 f4 [32]
000000 ea 03 b0 3e 1e 15 91 3e f0 3d d0 3a 5d 5e d0 3e
       0.34377986 0.28336424 0.00158876 0.40696993
000010 f6 33 1c 3e ca 9c ab 3e 51 51 39 3e 41 35 88 be
       0.15254197 0.33518058 0.18097426 -0.2660313
000020 49 59 92 3e 95 3c 07 be 0a ce 0e 3e 06 ad 54 3e
       0.28583744 -0.13206704 0.13945785 0.20769128
000030 98 7f 47 3e e2 aa 07 3e 92 ca 7a be 7c c9 6f bd
       0.19482267 0.1324878 -0.24491337 -0.05854176
000040 f5 c9 5a be 29 f4 e2 bd ec 1c 96 3e 94 2e 28 bd
       -0.21366103 -0.11081726 0.2931894 -0.041060045
000050 d8 7d 65 bd 22 36 be 3e f8 cf fd bc 22 ea b8 3e
       -0.056028217 0.37150675 -0.030982956 0.3611613
000060 7d d8 0d 3e c3 8e c7 bd ff 6b 22 bc bf d6 07 3e
       0.13852115 -0.097440265 -0.009913444 0.13265513
000070 39 da 22 3e 92 c8 85 bc 60 ae 18 be e6 6e 94 3d
       0.15903558 -0.016330991 -0.14910269 0.07247715

lstm.bias_hh_l0 f4 [32]
000000 c3 2d 36 3e d4 87 bb 3e 6d c6 08 3e cb 76 40 3c
       0.17790894 0.36627066 0.13356943 0.011747072
000010 e9 4f 65 3e 8b 5f dc 3e 1e d2 84 be af b7 4e bd
       0.22393765 0.43041644 -0.25941557 -0.050468143
000020 7c ed 2c 3b 19 8d b0 3e 3b 67 a3 3e e7 0d 46 be
       0.002638667 0.3448265 0.31914696 -0.19341241
000030 5b b5 b2 3e 3d db 04 3e 9a 1f ac 3d 12 4f cf 3e
       0.34903988 0.12974258 0.08404465 0.40490013
000040 9e cf 10 3e a2 de 90 be d6 4d e0 3d 7e 68 a8 be
       0.141417 -0.28294855 0.10952346 -0.3289222
000050 be 11 77 3d 56 09 43 be c2 b8 a8 be f0 57 c5 3e
       0.060319655 -0.1904653 -0.3295346 0.38543653
000060 3b 82 2c ba 46 de 47 be 0c eb 15 be 90 ae 75 bd
       -0.0006580685 -0.19518384 -0.14640445 -0.05998093
000070 b4 07 c9 3d b2 ac 20 be 2f 12 ca bd f3 12 4f 3d
       0.098159224 -0.15690878 -0.098667495 0.05055518

lstm.weight_ih_l1 f4 [32, 8]
000000 a6 13 b5 3d 05 06 8a bd a4 6b 26 3f 72 59 40 be
       0.08841638 -0.067394294 0.65007997 -0.1878412
000010 43 f4 b2 3e 96 61 82 bc 02 53 00 3e a1 61 c2 bc
       0.34951982 -0.015915673 0.12531665 -0.023728194
000020 85 3a df 3d 35 ce 3d be a4 1a f6 3e 58 e6 2a be
       0.108998336 -0.18535693 0.480672 -0.16689432
000030 f5 51 45 bd c4 7b 4c 3e 23 70 0a be dc 0a bf 3d
       -0.048173863 0.19969088 -0.1351934 0.09328243
000040 0f 2b 3f be 51 91 65 3e 53 f4 30 3e 96 68 ac 3e
       -0.1866877 0.22418715 0.17280702 0.33673543
000050 1b d5 53 bd 02 d6 a3 3d 4a 73 24 3f 05 55 d1 be
       -0.051716905 0.07999803 0.6423842 -0.40885177
000060 b7 a3 d9 3e ff 2b 54 be 7e 35 5d 3e 1d c7 b4 be
       0.42507717 -0.20719908 0.21602437 -0.3530816
000070 d8 69 a2 be d7 59 95 3e 23 4a 58 be 20 13 88 3e
       -0.31721377 0.29170105 -0.21122031 0.2657709
000080 36 90 11 be bb 4e cd be b2 36 ad bd f1 b5 a9 3e
       -0.14215168 -0.4009913 -0.08457698 0.33146623
000090 ae 44 59 3e 79 10 8f bd 21 3b fb bc 33 da 3d 3e
       0.21217605 -0.06985564 -0.030667843 0.18540268
0000a0 c9 c4 c4 bd fd a0 8f be 2a 1d f6 3e 7a e4 b4 3d
       -0.09607846 -0.28052512 0.48069125 0.08832641
0000b0 c0 19 0b be a8 4d a6 bd 26 41 9f 3d 1e e6 8a be
       -0.13584042 -0.081202805 0.07776098 -0.2712869
0000c0 1b 01 d6 3c 53 b4 4f 3e 5a a7 2b be f8 7e a5 3d
       0.026123574 0.20283632 -0.16763058 0.08080858
0000d0 d9 45 b2 3d ce 56 59 3e 17 b1 e9 3c f0 49 29 3e
       0.08704729 0.2122452 0.028526826 0.16532111
0000e0 17 c2 52 3d b7 e3 8e bd 1d bc e8 3d 5e 52 83 bc
       0.05145463 -0.06977027 0.11364005 -0.016030487
0000f0 92 ad 25 be 0c d1 92 be e3 65 b0 3c 76 a2 5d 3e
       -0.16179493 -0.28675115 0.021532958 0.21644005
000100 75 bd 5e 3e 56 68 e7 be 74 a2 c4 bd 64 05 3e be
       0.2175196 -0.4519679 -0.09601298 -0.18556744
000110 26 3d d1 bd 1b 0d 17 3f 83 94 ae be 87 53 56 be
       -0.10216741 0.5900437 -0.3409768 -0.209303
000120 96 b1 e1 3e ba a3 03 bf ae ff 0d be 48 4f 74 bd
       0.440808 -0.514217 -0.13867065 -0.05964592
000130 96 9a bc 3e b6 72 16 bd 54 ad c3 3d 5f f0 6f be
       0.3683669 -0.03673049 0.09554544 -0.23431538
000140 9d b6 a0 3d 96 4e 9c 3e 26 2f 32 3e c9 74 8b be
       0.07847331 0.30528706 0.17400798 -0.27237538
000150 16 71 ec bc 6d 83 ad 3d d7 b7 13 3f 78 29 42 bd
       -0.028862517 0.08472333 0.5770239 -0.04740283
000160 27 e9 0e be a7 46 99 bd e9 fe 06 be b1 81 8a 3e
       -0.13956128 -0.07484179 -0.13183178 0.27052072
000170 22 bd 4d bd cc 40 34 3e ea b0 5a 3e 2c e2 bf 3e
       -0.0502292 0.17602843 0.2135655 0.37477243
000180 07 d4 b1 bc 32 6f bc bd 1d d4 21 3e b9 67 5c 3e
       -0.021707548 -0.09200896 0.15803571 0.21523942
000190 eb 39 99 3e 0f 57 ce 3e fa 2c 17 be b1 e7 02 3e
       0.29927 0.40300795 -0.14763251 0.12783696
0001a0 f2 34 1e 3e 66 e7 94 bd 48 ab 0d 3f b6 5e 9e be
       0.15449885 -0.07270698 0.5533948 -0.30931634
0001b0 2d 1b 96 3d 84 76 db 3e 3c fa 6a bc 28 28 b1 3e
       0.07329402 0.42863858 -0.014341887 0.3460095
0001c0 e0 be 08 bb cb fa 63 3d aa bf cc be 7f 50 9d 3e
       -0.0020865723 0.055659097 -0.39989978 0.30725476
0001d0 a7 65 91 bd bc 73 e7 3e 75 70 07 3e 98 ee 21 be
       -0.07099467 0.45205486 0.13226493 -0.15813673
0001e0 4d 5f f2 3e 98 64 1e bf b5 1f 8b 3e a1 8b 84 bd
       0.47338334 -0.61872244 0.27172628 -0.064719446
0001f0 0c 05 a1 bd 6c 43 11 be 86 0c 0c bf 8b bd 36 3e
       -0.07862291 -0.14185876 -0.5470661 0.17845742
000200 01 15 a1 be 48 81 9a 3e c9 b5 4f 3e 8e bd b4 be
       -0.31461337 0.3017676 0.2028419 -0.3530087
000210 df d0 80 3d d2 14 a6 be b0 52 ad 3e b8 64 3c be
       0.06289839 -0.3243776 0.33852148 -0.18397796
000220 11 3e 35 ba 0f c6 e3 3e 7a 97 9f 3e 69 4c 07 3d
       -0.00069138507 0.44487044 0.31170255 0.033031855
000230 f7 4e 3b be b2 5b 9d be ad 22 49 3e 5c 38 7f 3e
       -0.18291841 -0.3073402 0.19642134 0.24923843
000240 f5 36 b0 be 59 d3 98 3d 5e be 6b 3e 77 e3 04 be
       -0.3441693 0.07462186 0.23021838 -0.12977396
000250 56 53 5d 3e 8c b8 34 3e 93 58 e5 bc b6 71 b8 be
       0.21613821 0.17648524 -0.027996337 -0.36024255
000260 34 25 93 be d2 07 a2 3e a7 4a b7 bd 09 2e 77 3e
       -0.2873932 0.3164659 -0.08949786 0.24138655
000270 9b ad ec bd bb 5f 46 bf 8e c9 04 3f ba 63 ba be
       -0.1155655 -0.77489823 0.5187005 -0.3640421
000280 c4 67 66 be dc a6 6d be b8 c8 8f 3e 6b 5a d5 3d
       -0.22500521 -0.23208183 0.28082824 0.104176365
000290 f6 aa a9 be 25 0e 1f be 48 f3 a2 3e c0 26 0b be
       -0.33138245 -0.1553274 0.31826234 -0.13589
0002a0 1c ce 23 3e 7c 4a 6a be ef e0 76 be 6d f6 9a 3e
       0.15996593 -0.22879976 -0.24109243 0.30266133
0002b0 a5 db 60 be 21 43 0b 3e f7 1d e6 be ed 1e 98 be
       -0.21958788 0.13599826 -0.44944736 -0.29711094
0002c0 d3 d3 9a 3e d4 fc 84 be 62 88 29 bd 5b 2a 11 be
       0.30239734 -0.25974143 -0.04138983 -0.14176314
0002d0 42 16 1f be b9 d1 34 be 99 0f 98 be 99 c0 98 3e
       -0.15535834 -0.17658128 -0.296994 0.2983444
0002e0 52 14 c2 ba 86 a0 8a 3e 58 a4 09 3e 63 c1 32 3d
       -0.0014807081 0.27075595 0.13441598 0.04364146
0002f0 8c da 4b be 88 0d b4 3c 49 26 c9 3e b7 31 bf be
       -0.19907588 0.021979108 0.39287022 -0.37342617
000300 4b c7 98 bd cf e5 ac be 5b 7f 3b 3f df 0a 9a be
       -0.07459887 -0.3376908 0.73241204 -0.3008642
000310 69 da 04 3e 16 2d b1 3e 95 0b 75 be 4b 31 8e 3d
       0.12973942 0.3460471 -0.239302 0.06942996
000320 86 1f e1 3e db 74 11 be 38 51 83 3d 3b 04 a5 be
       0.43969363 -0.14204733 0.064119756 -0.3222979
000330 dd ac 40 3d 28 64 1d 3f ba fa 99 3e 71 16 08 3e
       0.047039855 0.6148095 0.30074102 0.1328981
000340 1f 6b 70 be 2a cd c0 3e 52 42 d6 bc 01 18 9e 3c
       -0.23478363 0.37656528 -0.02615467 0.019298555
000350 f4 68 a2 be 80 f2 28 bf 38 d1 5b 3e d4 e7 27 be
       -0.31720698 -0.65995026 0.2146653 -0.16397029
000360 f4 d9 9a 3e 5e 30 19 bf d8 1c 32 3f 6c 32 78 be
       0.3024441 -0.5983943 0.6957526 -0.24237984
000370 d8 b6 12 bf 07 c5 83 3d bf 98 d9 bd 15 95 13 3d
       -0.5731025 0.06434064 -0.10624837 0.036030848
000380 1c 22 bc 3e f9 ca 44 3c 22 ae dc bc b0 cd b7 3d
       0.36744773 0.012011283 -0.026938502 0.08974779
000390 eb 5f d1 3e 72 8c 3e 3e a4 0f d1 be 4d f6 0a 3c
       0.40893492 0.18608263 -0.40832245 0.008481574
0003a0 e2 f4 64 3e 30 1b b3 3d 78 25 49 3d 26 df d7 be
       0.2235904 0.0874542 0.049108 -0.42162436
0003b0 67 ee 73 be ba 06 d3 3e 6c 5b 6f 3e 2b fd 61 3e
       -0.23821412 0.4121607 0.23374718 0.22069232
0003c0 d9 10 55 be 4e d7 03 3e 57 39 7a be d8 8b b7 3d
       -0.20807208 0.12875101 -0.24435936 0.0896222
0003d0 97 ba 48 bd 3f 34 6d 3e 3b 2e c3 be e3 3d 1f be
       -0.04900607 0.23164462 -0.3812121 -0.15550952
0003e0 5e fb aa 3e bb 91 53 bd 59 14 8f 3e c4 b3 3f 3d
       0.33394903 -0.05165265 0.27945212 0.046802297
0003f0 2b 53 93 3d 3a 83 45 3e 01 29 85 be 91 89 c8 bd
       0.071935974 0.1928834 -0.26007846 -0.09791864

lstm.weight_hh_l1 f4 [32, 8]
000000 49 e8 1f 3e 0a db fb 3c c4 3e 9a 3e a6 8d 06 be
       0.15615954 0.030744094 0.3012601 -0.13139972
000010 4d 4d e6 be 6e 1a 4f be df c2 db 3e cb 9f f9 bd
       -0.4498085 -0.20224926 0.42922112 -0.12188681
000020 ca aa cc be 29 ee 80 3d c0 eb a8 3e a4 96 6f 3e
       -0.39974052 0.062954254 0.32992363 0.23397309
000030 4a 2c de 3d 4b 67 33 be aa a0 0e 3e f7 4c 80 3d
       0.10848291 -0.17519872 0.13928476 0.0626468
000040 cd 3f 4c 3e 2f 1a c2 bd 98 5c a9 3e b9 0a b9 3e
       0.19946213 -0.094776504 0.33078456 0.36140993
000050 0e 21 5b 3d 19 ae ea 3d ed b7 04 3e 8f f2 d1 3e
       0.05349832 0.11458988 0.12960787 0.4100537
000060 a3 90 df 3d 9a d8 97 bd 37 5a 54 3f 79 de ce bd
       0.10916259 -0.0741436 0.82950157 -0.10101027
000070 82 7f d1 3d 59 8c 00 bf 3d cd f0 3d f5 0c 85 be
       0.10229398 -0.50214154 0.11757896 -0.25986448
000080 02 60 4f 3d c2 ff 68 3d ab 04 0c 3e 33 bd 75 3e
       0.05062867 0.056884535 0.13673656 0.23997955
000090 49 80 5d 3e 3b 6a c9 3b b1 8c 91 bc 30 23 09 bf
       0.21630968 0.006146697 -0.017767282 -0.53569317
0000a0 0b 39 8a be 1d f0 c4 bd 36 68 a2 3e 33 06 9d bc
       -0.26996645 -0.096161105 0.31720132 -0.019167995
0000b0 b3 37 e7 3d 72 ee 08 3e 75 d8 99 bd 4a 80 7b 3e
       0.11289921 0.1337221 -0.07511989 0.24560657
0000c0 34 90 b3 be ae 19 fa 3d ca 18 cd bc a7 76 81 be
       -0.35070956 0.12211929 -0.025036234 -0.25285837
0000d0 ec 6c d4 3b 61 99 b8 3e 39 90 66 be f5 7e 2e be
       0.006482711 0.3605452 -0.22515954 -0.17040618
0000e0 29 af 9c be b3 ad 2c be 5f db a3 3e c3 c6 1b 3f
       -0.30602387 -0.16863136 0.32003304 0.6085016
0000f0 51 7c 86 3e 78 b3 30 be 8d c8 36 3e b9 00 c3 be
       0.2626672 -0.17255962 0.17849942 -0.3808649
000100 60 be a5 be c2 5f a9 be c1 21 02 3f ba 64 30 bd
       -0.32371807 -0.3308087 0.50832754 -0.04306481
000110 e8 6c 39 be ed 89 2e be 75 3f 77 3e 3f d8 a5 be
       -0.1810795 -0.17044802 0.241453 -0.32391545
000120 0e 31 f6 be 11 12 fc 3d 47 31 01 3f 65 66 00 3f
       -0.480843 0.123081334 0.50465816 0.5015624
000130 0d e3 81 be e9 e5 74 be cf 3a af bd 6f 97 c4 be
       -0.25368538 -0.23915829 -0.08556139 -0.38396785
000140 0a 3e 4e 3e e5 8d 0d 3f 23 82 9e 3d 36 65 57 3f
       0.20140854 0.5529464 0.07739665 0.8413881
000150 55 e3 bb bd 28 dd 87 be 51 bd 60 3e 51 b5 69 3e
       -0.091742195 -0.26535916 0.21947218 0.22823073
000160 91 31 0c be 71 fd 8f bd b9 bc 31 3e fb 31 b9 bb
       -0.13690783 -0.07030762 0.17357148 -0.00565171
000170 9a ea 89 3e b2 71 e7 be cc 70 17 be 22 3c 63 3e
       0.269368 -0.4520393 -0.14789122 0.22190908
000180 28 a6 f9 be c5 a3 12 be 85 dc de 3d 1f c4 ad 3e
       -0.4875958 -0.14320286 0.108819045 0.3393869
000190 ea 34 80 ba 5a 93 11 3d ad c8 80 3e 82 1d e8 be
       -0.0009781395 0.035540916 0.25153103 -0.45335013
0001a0 c1 0f 98 3e 5f 86 31 be 21 c9 17 3f 3c c9 2a 3f
       0.2969952 -0.17336415 0.59291273 0.6671331
0001b0 a5 e2 e8 3d c2 56 f3 be 1d 3a 3e 3e af eb 3e bd
       0.11371354 -0.47527128 0.18576856 -0.046611484
0001c0 ec 3d df be 33 4c 7d be d7 ac 85 bd fc 1e dd 3d
       -0.4360193 -0.24736099 -0.06527107 0.107969254
0001d0 99 ab 76 be 63 52 2f 3d 80 6c a4 bd f0 0e 11 bf
       -0.24088897 0.04280318 -0.08028507 -0.5666342
0001e0 9a 27 01 bf a1 80 14 be d8 ec 99 3e c3 a4 13 be
       -0.5045105 -0.14502193 0.3006351 -0.1441832
0001f0 10 52 64 bc 8b e7 09 3e 53 ec b3 3e dc b6 fe bc
       -0.013935581 0.13467233 0.3514124 -0.031093054
000200 22 14 28 bd 78 6c 01 bd 76 43 99 3d eb 1c 3d be
       -0.041034825 -0.031597584 0.0748357 -0.18468063
000210 48 ab 58 bd ad f9 8d bb 2d 4f 47 be 50 46 d2 3e
       -0.05289772 -0.004332742 -0.19463797 0.4106927
000220 ca 66 b8 3e a7 a5 15 3e 13 da 4e be 9e a4 9b be
       0.36015922 0.14613973 -0.20200376 -0.3039903
000230 37 90 52 3e e0 70 08 bf 17 6c 0b bd 40 74 7f 3d
       0.20562826 -0.53297234 -0.03403863 0.062366724
000240 f0 51 c8 3d 6b 64 84 3e 64 1a 8a 3e 4a 57 30 be
       0.09781253 0.25857863 0.2697326 -0.17220798
000250 b0 16 38 be 6c ff 97 be 94 c6 2b bc df fc aa 3d
       -0.17977405 -0.2968706 -0.010484356 0.083490126
000260 c8 e1 31 be 14 a3 d7 3e 67 eb b7 3e 97 08 4e bd
       -0.17371285 0.42116606 0.35921785 -0.05030116
000270 6b 00 9c be 9c 81 97 be fa e4 b8 bd 63 37 35 be
       -0.3046907 -0.29591072 -0.09028049 -0.1769691
000280 a7 f9 93 bd 87 06 96 3e 97 54 af bd 1f f0 93 3e
       -0.07225352 0.29301855 -0.08561056 0.28894135
000290 f5 42 81 3c a0 cb c4 37 8d 7c 52 3d 0f 1f a9 3e
       0.015778998 2.3459841e-05 0.051388312 0.33031508
0002a0 c5 8a b3 be a1 f5 72 be 45 a6 4a bd 2a 6a 6f be
       -0.3506681 -0.23726512 -0.049474973 -0.23380342
0002b0 f8 a6 78 bd f6 0e 27 3c f7 0f ab 3d bd de fc bd
       -0.06070611 0.010196438 0.083526544 -0.123471715
0002c0 b1 2e 26 bd dd e3 61 be 80 8e a7 bd 9d 3d 01 be
       -0.040571872 -0.22059579 -0.081814766 -0.1262116
0002d0 67 a2 9c be 51 5d 02 be ca ae 87 3e 5a cb 24 bc
       -0.30592653 -0.1273091 0.2650054 -0.010058248
0002e0 8a 4a 23 bc ba 84 ae 3e 45 3f 94 3e ed 07 01 3e
       -0.009966502 0.34085637 0.2895452 0.1260068
0002f0 86 1f 8f 3e 6f 2c a9 be 23 7a 84 be 2d 21 c2 3e
       0.27953738 -0.33041713 -0.25874433 0.37915936
000300 35 43 07 3e 3b 21 19 bf 05 6e 01 3f 5c cf fc bd
       0.13209231 -0.5981633 0.505585 -0.12344238
000310 0d 0a 13 bf ba 2e d4 3e fb fb cd 3e 67 c4 b1 3d
       -0.5743721 0.414419 0.40231308 0.08680039
000320 9e fe a8 3d 64 e5 95 be b9 f8 d0 3e a4 ab 18 bd
       0.082516894 -0.29276574 0.4081476 -0.037273064
000330 18 1c 82 bd 17 67 ca 3e e4 5a 58 3d 4e 8d a8 be
       -0.06353015 0.39531776 0.052821055 -0.32920307
000340 ca bc f8 3e 73 da fe 3e 46 e1 82 3e 5f 21 09 3f
       0.48581535 0.4977604 0.25562495 0.53566545
000350 fa 79 96 3e 39 aa ae be 48 0b 92 be 75 ae 06 3f
       0.29389936 -0.34114245 -0.28524232 0.5260995
000360 29 4e 70 be a9 3c 4c 3e 09 e4 70 3f bd 83 c5 3c
       -0.23467316 0.19945015 0.94097954 0.02411067
000370 a2 a5 05 bf bc 34 1b be 08 7d f5 3e 38 a5 f8 bc
       -0.5220586 -0.15156835 0.47946954 -0.03035222
000380 8f 1d 01 bf 55 a2 6a be 16 1f c1 be d0 e3 64 3e
       -0.5043573 -0.22913487 -0.3771903 0.22352529
000390 a6 3e f7 be 22 9f d3 3e 3d 8d 1d 3e 19 4a 9d be
       -0.48289984 0.41332346 0.1538591 -0.30720595
0003a0 fe 71 b8 bd 83 4f 0c 3e b7 89 9c 3e b1 0d cd 3e
       -0.09006117 0.13702206 0.30573818 0.40049508
0003b0 4f f3 9d be 71 ea d3 be 1e d4 94 3e 24 13 c6 3d
       -0.30849692 -0.41389802 0.29068083 0.096716195
0003c0 3d 9c 35 3d 4c be 03 bf 52 20 2c be 09 0e af 3e
       0.044338454 -0.51462245 -0.16809204 0.34190395
0003d0 ff 55 e3 bd 57 8b 10 bd e6 a6 e8 bc d4 4a da be
       -0.11100387 -0.035289135 -0.028399896 -0.42635214
0003e0 a4 b7 c0 be 25 6b fd bd 47 8e f7 3e 81 bf 25 be
       -0.37640107 -0.12373952 0.48350736 -0.16186334
0003f0 70 79 25 be 50 d5 1f be a9 56 fc 3d f7 6c 14 bc
       -0.16159606 -0.15608716 0.123212166 -0.009059182

lstm.bias_ih_l1 f4 [32]
000000 b0 0d f5 3e 95 31 6b 3e 21 4b a5 bd 7b ae 3d 3e
       0.47862005 0.22968133 -0.0807097 0.1852359
000010 1e 07 02 be 5a 60 1a be 7c 6e 07 be b0 66 64 be
       -0.12698027 -0.15075818 -0.1322574 -0.22304797
000020 6a 05 95 3e 2b 78 50 3e 28 7b 9d 3e 41 a0 92 3e
       0.29105693 0.2035834 0.30758023 0.2863789
000030 3e b3 23 bc 15 72 8f bb 8d 4b c7 bd f6 09 81 3e
       -0.009991465 -0.0043776133 -0.09731207 0.25202912
000040 a2 3c 13 3e 68 51 36 bd ef 16 b3 3c 30 de f2 bd
       0.14378598 -0.04451123 0.021861522 -0.11858785
000050 23 be af be 55 00 33 bd bb 97 4a bb aa e6 b7 3d
       -0.3432475 -0.04370149 -0.0030913192 0.089795426
000060 43 6c 87 3e 47 75 f5 3d 6d bf 55 3e 25 d0 0c 3f
       0.26449785 0.119852595 0.20873804 0.55005103
000070 e6 76 13 be 5b d6 42 3d a9 5f 17 bc d0 c9 46 3e
       -0.14400825 0.047567707 -0.009239116 0.19412923

lstm.bias_hh_l1 f4 [32]
000000 1a cb df 3e a2 ed 48 3e d6 a9 19 be 77 98 71 3e
       0.43709642 0.196219 -0.15006194 0.23593317
000010 64 a2 0f 3e c0 93 61 3e ea e2 ac 3e 35 f7 34 3e
       0.14026791 0.22029018 0.33766872 0.17672427
000020 78 8c c3 3d b6 98 20 be e7 50 99 3e 03 18 df 3e
       0.09548277 -0.15683255 0.29944536 0.43573007
000030 89 37 a4 3e 0c 05 ba 3e ba 3d 9a bd 5d 01 04 3f
       0.3207362 0.36331975 -0.07531305 0.5156458
000040 2f 35 03 be af ee 0f bd 79 86 6d 3e 20 fb 91 3e
       -0.12813257 -0.035139736 0.23195828 0.28511906
000050 07 a6 c9 3d c5 df 56 3e a2 b4 bf 3d 4c 12 83 3e
       0.0984612 0.20983799 0.09360625 0.25599897
000060 d7 57 26 3f de 95 25 3e 86 38 82 3e c8 d5 34 3f
       0.6497778 0.16170451 0.2543375 0.70638704
000070 31 3c 12 be 45 81 79 3e ee 7c 95 bd 5b f6 82 bd
       -0.14280774 0.24365719 -0.07299219 -0.06394645

dense.weight f4 [1, 8]
000000 49 67 41 bf 2c ed 0a bf 37 3e 90 be a3 c0 46 bf
       -0.75548226 -0.54268146 -0.28172466 -0.7763769
000010 d8 0b a6 be 35 67 2c 3f 4f 82 76 3e 98 89 a7 be
       -0.3243091 0.6734498 0.24073146 -0.32722163
